Found 12720 files belonging to 50 classes.
Found 1413 files belonging to 50 classes.
Found 1597 files belonging to 50 classes.
Model: "model"
__________________________________________________________________________________________________
Layer (type)                    Output Shape         Param #     Connected to                     
==================================================================================================
input_1 (InputLayer)            [(None, 224, 224, 3) 0                                            
__________________________________________________________________________________________________
conv1 (Conv2D)                  (None, 112, 112, 64) 4864        input_1[0][0]                    
__________________________________________________________________________________________________
batch_normalization (BatchNorma (None, 112, 112, 64) 256         conv1[0][0]                      
__________________________________________________________________________________________________
activation (Activation)         (None, 112, 112, 64) 0           batch_normalization[0][0]        
__________________________________________________________________________________________________
pool1 (MaxPooling2D)            (None, 55, 55, 64)   0           activation[0][0]                 
__________________________________________________________________________________________________
nu_inception_1_3x3_0_3_reduce ( (None, 55, 55, 4)    260         pool1[0][0]                      
__________________________________________________________________________________________________
batch_normalization_7 (BatchNor (None, 55, 55, 4)    16          nu_inception_1_3x3_0_3_reduce[0][
__________________________________________________________________________________________________
activation_7 (Activation)       (None, 55, 55, 4)    0           batch_normalization_7[0][0]      
__________________________________________________________________________________________________
nu_inception_1_3x3_0_reduce (Co (None, 55, 55, 4)    260         pool1[0][0]                      
__________________________________________________________________________________________________
separable_conv2d_3 (SeparableCo (None, 55, 55, 8)    76          activation_7[0][0]               
__________________________________________________________________________________________________
batch_normalization_4 (BatchNor (None, 55, 55, 4)    16          nu_inception_1_3x3_0_reduce[0][0]
__________________________________________________________________________________________________
batch_normalization_8 (BatchNor (None, 55, 55, 8)    32          separable_conv2d_3[0][0]         
__________________________________________________________________________________________________
activation_4 (Activation)       (None, 55, 55, 4)    0           batch_normalization_4[0][0]      
__________________________________________________________________________________________________
activation_8 (Activation)       (None, 55, 55, 8)    0           batch_normalization_8[0][0]      
__________________________________________________________________________________________________
nu_inception_1_3x3_reduce (Conv (None, 55, 55, 24)   1560        pool1[0][0]                      
__________________________________________________________________________________________________
separable_conv2d_1 (SeparableCo (None, 55, 55, 8)    76          activation_4[0][0]               
__________________________________________________________________________________________________
separable_conv2d_4 (SeparableCo (None, 55, 55, 8)    144         activation_8[0][0]               
__________________________________________________________________________________________________
batch_normalization_2 (BatchNor (None, 55, 55, 24)   96          nu_inception_1_3x3_reduce[0][0]  
__________________________________________________________________________________________________
batch_normalization_5 (BatchNor (None, 55, 55, 8)    32          separable_conv2d_1[0][0]         
__________________________________________________________________________________________________
batch_normalization_9 (BatchNor (None, 55, 55, 8)    32          separable_conv2d_4[0][0]         
__________________________________________________________________________________________________
activation_2 (Activation)       (None, 55, 55, 24)   0           batch_normalization_2[0][0]      
__________________________________________________________________________________________________
activation_5 (Activation)       (None, 55, 55, 8)    0           batch_normalization_5[0][0]      
__________________________________________________________________________________________________
activation_9 (Activation)       (None, 55, 55, 8)    0           batch_normalization_9[0][0]      
__________________________________________________________________________________________________
nu_inception_1_1x1 (Conv2D)     (None, 55, 55, 16)   1040        pool1[0][0]                      
__________________________________________________________________________________________________
separable_conv2d (SeparableConv (None, 55, 55, 32)   1016        activation_2[0][0]               
__________________________________________________________________________________________________
separable_conv2d_2 (SeparableCo (None, 55, 55, 8)    144         activation_5[0][0]               
__________________________________________________________________________________________________
separable_conv2d_5 (SeparableCo (None, 55, 55, 8)    144         activation_9[0][0]               
__________________________________________________________________________________________________
batch_normalization_1 (BatchNor (None, 55, 55, 16)   64          nu_inception_1_1x1[0][0]         
__________________________________________________________________________________________________
batch_normalization_3 (BatchNor (None, 55, 55, 32)   128         separable_conv2d[0][0]           
__________________________________________________________________________________________________
batch_normalization_6 (BatchNor (None, 55, 55, 8)    32          separable_conv2d_2[0][0]         
__________________________________________________________________________________________________
batch_normalization_10 (BatchNo (None, 55, 55, 8)    32          separable_conv2d_5[0][0]         
__________________________________________________________________________________________________
activation_1 (Activation)       (None, 55, 55, 16)   0           batch_normalization_1[0][0]      
__________________________________________________________________________________________________
activation_3 (Activation)       (None, 55, 55, 32)   0           batch_normalization_3[0][0]      
__________________________________________________________________________________________________
activation_6 (Activation)       (None, 55, 55, 8)    0           batch_normalization_6[0][0]      
__________________________________________________________________________________________________
activation_10 (Activation)      (None, 55, 55, 8)    0           batch_normalization_10[0][0]     
__________________________________________________________________________________________________
concatenate (Concatenate)       (None, 55, 55, 64)   0           activation_1[0][0]               
                                                                 activation_3[0][0]               
                                                                 activation_6[0][0]               
                                                                 activation_10[0][0]              
__________________________________________________________________________________________________
conv_direct_1 (Conv2D)          (None, 55, 55, 64)   4160        concatenate[0][0]                
__________________________________________________________________________________________________
conv_bypass_1 (Conv2D)          (None, 55, 55, 64)   4160        pool1[0][0]                      
__________________________________________________________________________________________________
batch_normalization_11 (BatchNo (None, 55, 55, 64)   256         conv_direct_1[0][0]              
__________________________________________________________________________________________________
batch_normalization_12 (BatchNo (None, 55, 55, 64)   256         conv_bypass_1[0][0]              
__________________________________________________________________________________________________
activation_11 (Activation)      (None, 55, 55, 64)   0           batch_normalization_11[0][0]     
__________________________________________________________________________________________________
activation_12 (Activation)      (None, 55, 55, 64)   0           batch_normalization_12[0][0]     
__________________________________________________________________________________________________
residual1 (Add)                 (None, 55, 55, 64)   0           activation_11[0][0]              
                                                                 activation_12[0][0]              
__________________________________________________________________________________________________
activation_13 (Activation)      (None, 55, 55, 64)   0           residual1[0][0]                  
__________________________________________________________________________________________________
pool2 (MaxPooling2D)            (None, 27, 27, 64)   0           activation_13[0][0]              
__________________________________________________________________________________________________
nu_inception_2_3x3_0_3_reduce ( (None, 27, 27, 8)    520         pool2[0][0]                      
__________________________________________________________________________________________________
batch_normalization_19 (BatchNo (None, 27, 27, 8)    32          nu_inception_2_3x3_0_3_reduce[0][
__________________________________________________________________________________________________
activation_20 (Activation)      (None, 27, 27, 8)    0           batch_normalization_19[0][0]     
__________________________________________________________________________________________________
nu_inception_2_3x3_0_reduce (Co (None, 27, 27, 8)    520         pool2[0][0]                      
__________________________________________________________________________________________________
separable_conv2d_9 (SeparableCo (None, 27, 27, 16)   216         activation_20[0][0]              
__________________________________________________________________________________________________
batch_normalization_16 (BatchNo (None, 27, 27, 8)    32          nu_inception_2_3x3_0_reduce[0][0]
__________________________________________________________________________________________________
batch_normalization_20 (BatchNo (None, 27, 27, 16)   64          separable_conv2d_9[0][0]         
__________________________________________________________________________________________________
activation_17 (Activation)      (None, 27, 27, 8)    0           batch_normalization_16[0][0]     
__________________________________________________________________________________________________
activation_21 (Activation)      (None, 27, 27, 16)   0           batch_normalization_20[0][0]     
__________________________________________________________________________________________________
nu_inception_2_3x3_reduce (Conv (None, 27, 27, 48)   3120        pool2[0][0]                      
__________________________________________________________________________________________________
separable_conv2d_7 (SeparableCo (None, 27, 27, 16)   216         activation_17[0][0]              
__________________________________________________________________________________________________
separable_conv2d_10 (SeparableC (None, 27, 27, 16)   416         activation_21[0][0]              
__________________________________________________________________________________________________
batch_normalization_14 (BatchNo (None, 27, 27, 48)   192         nu_inception_2_3x3_reduce[0][0]  
__________________________________________________________________________________________________
batch_normalization_17 (BatchNo (None, 27, 27, 16)   64          separable_conv2d_7[0][0]         
__________________________________________________________________________________________________
batch_normalization_21 (BatchNo (None, 27, 27, 16)   64          separable_conv2d_10[0][0]        
__________________________________________________________________________________________________
activation_15 (Activation)      (None, 27, 27, 48)   0           batch_normalization_14[0][0]     
__________________________________________________________________________________________________
activation_18 (Activation)      (None, 27, 27, 16)   0           batch_normalization_17[0][0]     
__________________________________________________________________________________________________
activation_22 (Activation)      (None, 27, 27, 16)   0           batch_normalization_21[0][0]     
__________________________________________________________________________________________________
nu_inception_2_1x1 (Conv2D)     (None, 27, 27, 32)   2080        pool2[0][0]                      
__________________________________________________________________________________________________
separable_conv2d_6 (SeparableCo (None, 27, 27, 64)   3568        activation_15[0][0]              
__________________________________________________________________________________________________
separable_conv2d_8 (SeparableCo (None, 27, 27, 16)   416         activation_18[0][0]              
__________________________________________________________________________________________________
separable_conv2d_11 (SeparableC (None, 27, 27, 16)   416         activation_22[0][0]              
__________________________________________________________________________________________________
batch_normalization_13 (BatchNo (None, 27, 27, 32)   128         nu_inception_2_1x1[0][0]         
__________________________________________________________________________________________________
batch_normalization_15 (BatchNo (None, 27, 27, 64)   256         separable_conv2d_6[0][0]         
__________________________________________________________________________________________________
batch_normalization_18 (BatchNo (None, 27, 27, 16)   64          separable_conv2d_8[0][0]         
__________________________________________________________________________________________________
batch_normalization_22 (BatchNo (None, 27, 27, 16)   64          separable_conv2d_11[0][0]        
__________________________________________________________________________________________________
activation_14 (Activation)      (None, 27, 27, 32)   0           batch_normalization_13[0][0]     
__________________________________________________________________________________________________
activation_16 (Activation)      (None, 27, 27, 64)   0           batch_normalization_15[0][0]     
__________________________________________________________________________________________________
activation_19 (Activation)      (None, 27, 27, 16)   0           batch_normalization_18[0][0]     
__________________________________________________________________________________________________
activation_23 (Activation)      (None, 27, 27, 16)   0           batch_normalization_22[0][0]     
__________________________________________________________________________________________________
concatenate_1 (Concatenate)     (None, 27, 27, 128)  0           activation_14[0][0]              
                                                                 activation_16[0][0]              
                                                                 activation_19[0][0]              
                                                                 activation_23[0][0]              
__________________________________________________________________________________________________
conv_direct_2 (Conv2D)          (None, 27, 27, 128)  16512       concatenate_1[0][0]              
__________________________________________________________________________________________________
conv_bypass_2 (Conv2D)          (None, 27, 27, 128)  8320        pool2[0][0]                      
__________________________________________________________________________________________________
batch_normalization_23 (BatchNo (None, 27, 27, 128)  512         conv_direct_2[0][0]              
__________________________________________________________________________________________________
batch_normalization_24 (BatchNo (None, 27, 27, 128)  512         conv_bypass_2[0][0]              
__________________________________________________________________________________________________
activation_24 (Activation)      (None, 27, 27, 128)  0           batch_normalization_23[0][0]     
__________________________________________________________________________________________________
activation_25 (Activation)      (None, 27, 27, 128)  0           batch_normalization_24[0][0]     
__________________________________________________________________________________________________
residual2 (Add)                 (None, 27, 27, 128)  0           activation_24[0][0]              
                                                                 activation_25[0][0]              
__________________________________________________________________________________________________
activation_26 (Activation)      (None, 27, 27, 128)  0           residual2[0][0]                  
__________________________________________________________________________________________________
pool3 (MaxPooling2D)            (None, 13, 13, 128)  0           activation_26[0][0]              
__________________________________________________________________________________________________
nu_inception_3_3x3_0_3_reduce ( (None, 13, 13, 16)   2064        pool3[0][0]                      
__________________________________________________________________________________________________
batch_normalization_31 (BatchNo (None, 13, 13, 16)   64          nu_inception_3_3x3_0_3_reduce[0][
__________________________________________________________________________________________________
activation_33 (Activation)      (None, 13, 13, 16)   0           batch_normalization_31[0][0]     
__________________________________________________________________________________________________
nu_inception_3_3x3_0_reduce (Co (None, 13, 13, 16)   2064        pool3[0][0]                      
__________________________________________________________________________________________________
separable_conv2d_15 (SeparableC (None, 13, 13, 32)   688         activation_33[0][0]              
__________________________________________________________________________________________________
batch_normalization_28 (BatchNo (None, 13, 13, 16)   64          nu_inception_3_3x3_0_reduce[0][0]
__________________________________________________________________________________________________
batch_normalization_32 (BatchNo (None, 13, 13, 32)   128         separable_conv2d_15[0][0]        
__________________________________________________________________________________________________
activation_30 (Activation)      (None, 13, 13, 16)   0           batch_normalization_28[0][0]     
__________________________________________________________________________________________________
activation_34 (Activation)      (None, 13, 13, 32)   0           batch_normalization_32[0][0]     
__________________________________________________________________________________________________
nu_inception_3_3x3_reduce (Conv (None, 13, 13, 96)   12384       pool3[0][0]                      
__________________________________________________________________________________________________
separable_conv2d_13 (SeparableC (None, 13, 13, 32)   688         activation_30[0][0]              
__________________________________________________________________________________________________
separable_conv2d_16 (SeparableC (None, 13, 13, 32)   1344        activation_34[0][0]              
__________________________________________________________________________________________________
batch_normalization_26 (BatchNo (None, 13, 13, 96)   384         nu_inception_3_3x3_reduce[0][0]  
__________________________________________________________________________________________________
batch_normalization_29 (BatchNo (None, 13, 13, 32)   128         separable_conv2d_13[0][0]        
__________________________________________________________________________________________________
batch_normalization_33 (BatchNo (None, 13, 13, 32)   128         separable_conv2d_16[0][0]        
__________________________________________________________________________________________________
activation_28 (Activation)      (None, 13, 13, 96)   0           batch_normalization_26[0][0]     
__________________________________________________________________________________________________
activation_31 (Activation)      (None, 13, 13, 32)   0           batch_normalization_29[0][0]     
__________________________________________________________________________________________________
activation_35 (Activation)      (None, 13, 13, 32)   0           batch_normalization_33[0][0]     
__________________________________________________________________________________________________
nu_inception_3_1x1 (Conv2D)     (None, 13, 13, 64)   8256        pool3[0][0]                      
__________________________________________________________________________________________________
separable_conv2d_12 (SeparableC (None, 13, 13, 128)  13280       activation_28[0][0]              
__________________________________________________________________________________________________
separable_conv2d_14 (SeparableC (None, 13, 13, 32)   1344        activation_31[0][0]              
__________________________________________________________________________________________________
separable_conv2d_17 (SeparableC (None, 13, 13, 32)   1344        activation_35[0][0]              
__________________________________________________________________________________________________
batch_normalization_25 (BatchNo (None, 13, 13, 64)   256         nu_inception_3_1x1[0][0]         
__________________________________________________________________________________________________
batch_normalization_27 (BatchNo (None, 13, 13, 128)  512         separable_conv2d_12[0][0]        
__________________________________________________________________________________________________
batch_normalization_30 (BatchNo (None, 13, 13, 32)   128         separable_conv2d_14[0][0]        
__________________________________________________________________________________________________
batch_normalization_34 (BatchNo (None, 13, 13, 32)   128         separable_conv2d_17[0][0]        
__________________________________________________________________________________________________
activation_27 (Activation)      (None, 13, 13, 64)   0           batch_normalization_25[0][0]     
__________________________________________________________________________________________________
activation_29 (Activation)      (None, 13, 13, 128)  0           batch_normalization_27[0][0]     
__________________________________________________________________________________________________
activation_32 (Activation)      (None, 13, 13, 32)   0           batch_normalization_30[0][0]     
__________________________________________________________________________________________________
activation_36 (Activation)      (None, 13, 13, 32)   0           batch_normalization_34[0][0]     
__________________________________________________________________________________________________
concatenate_2 (Concatenate)     (None, 13, 13, 256)  0           activation_27[0][0]              
                                                                 activation_29[0][0]              
                                                                 activation_32[0][0]              
                                                                 activation_36[0][0]              
__________________________________________________________________________________________________
conv_direct_3 (Conv2D)          (None, 13, 13, 256)  65792       concatenate_2[0][0]              
__________________________________________________________________________________________________
conv_bypass_3 (Conv2D)          (None, 13, 13, 256)  33024       pool3[0][0]                      
__________________________________________________________________________________________________
batch_normalization_35 (BatchNo (None, 13, 13, 256)  1024        conv_direct_3[0][0]              
__________________________________________________________________________________________________
batch_normalization_36 (BatchNo (None, 13, 13, 256)  1024        conv_bypass_3[0][0]              
__________________________________________________________________________________________________
activation_37 (Activation)      (None, 13, 13, 256)  0           batch_normalization_35[0][0]     
__________________________________________________________________________________________________
activation_38 (Activation)      (None, 13, 13, 256)  0           batch_normalization_36[0][0]     
__________________________________________________________________________________________________
residual3 (Add)                 (None, 13, 13, 256)  0           activation_37[0][0]              
                                                                 activation_38[0][0]              
__________________________________________________________________________________________________
activation_39 (Activation)      (None, 13, 13, 256)  0           residual3[0][0]                  
__________________________________________________________________________________________________
pool4 (MaxPooling2D)            (None, 6, 6, 256)    0           activation_39[0][0]              
__________________________________________________________________________________________________
nu_inception_4_3x3_0_3_reduce ( (None, 6, 6, 32)     8224        pool4[0][0]                      
__________________________________________________________________________________________________
batch_normalization_43 (BatchNo (None, 6, 6, 32)     128         nu_inception_4_3x3_0_3_reduce[0][
__________________________________________________________________________________________________
activation_46 (Activation)      (None, 6, 6, 32)     0           batch_normalization_43[0][0]     
__________________________________________________________________________________________________
nu_inception_4_3x3_0_reduce (Co (None, 6, 6, 32)     8224        pool4[0][0]                      
__________________________________________________________________________________________________
separable_conv2d_21 (SeparableC (None, 6, 6, 64)     2400        activation_46[0][0]              
__________________________________________________________________________________________________
batch_normalization_40 (BatchNo (None, 6, 6, 32)     128         nu_inception_4_3x3_0_reduce[0][0]
__________________________________________________________________________________________________
batch_normalization_44 (BatchNo (None, 6, 6, 64)     256         separable_conv2d_21[0][0]        
__________________________________________________________________________________________________
activation_43 (Activation)      (None, 6, 6, 32)     0           batch_normalization_40[0][0]     
__________________________________________________________________________________________________
activation_47 (Activation)      (None, 6, 6, 64)     0           batch_normalization_44[0][0]     
__________________________________________________________________________________________________
nu_inception_4_3x3_reduce (Conv (None, 6, 6, 192)    49344       pool4[0][0]                      
__________________________________________________________________________________________________
separable_conv2d_19 (SeparableC (None, 6, 6, 64)     2400        activation_43[0][0]              
__________________________________________________________________________________________________
separable_conv2d_22 (SeparableC (None, 6, 6, 64)     4736        activation_47[0][0]              
__________________________________________________________________________________________________
batch_normalization_38 (BatchNo (None, 6, 6, 192)    768         nu_inception_4_3x3_reduce[0][0]  
__________________________________________________________________________________________________
batch_normalization_41 (BatchNo (None, 6, 6, 64)     256         separable_conv2d_19[0][0]        
__________________________________________________________________________________________________
batch_normalization_45 (BatchNo (None, 6, 6, 64)     256         separable_conv2d_22[0][0]        
__________________________________________________________________________________________________
activation_41 (Activation)      (None, 6, 6, 192)    0           batch_normalization_38[0][0]     
__________________________________________________________________________________________________
activation_44 (Activation)      (None, 6, 6, 64)     0           batch_normalization_41[0][0]     
__________________________________________________________________________________________________
activation_48 (Activation)      (None, 6, 6, 64)     0           batch_normalization_45[0][0]     
__________________________________________________________________________________________________
nu_inception_4_1x1 (Conv2D)     (None, 6, 6, 128)    32896       pool4[0][0]                      
__________________________________________________________________________________________________
separable_conv2d_18 (SeparableC (None, 6, 6, 256)    51136       activation_41[0][0]              
__________________________________________________________________________________________________
separable_conv2d_20 (SeparableC (None, 6, 6, 64)     4736        activation_44[0][0]              
__________________________________________________________________________________________________
separable_conv2d_23 (SeparableC (None, 6, 6, 64)     4736        activation_48[0][0]              
__________________________________________________________________________________________________
batch_normalization_37 (BatchNo (None, 6, 6, 128)    512         nu_inception_4_1x1[0][0]         
__________________________________________________________________________________________________
batch_normalization_39 (BatchNo (None, 6, 6, 256)    1024        separable_conv2d_18[0][0]        
__________________________________________________________________________________________________
batch_normalization_42 (BatchNo (None, 6, 6, 64)     256         separable_conv2d_20[0][0]        
__________________________________________________________________________________________________
batch_normalization_46 (BatchNo (None, 6, 6, 64)     256         separable_conv2d_23[0][0]        
__________________________________________________________________________________________________
activation_40 (Activation)      (None, 6, 6, 128)    0           batch_normalization_37[0][0]     
__________________________________________________________________________________________________
activation_42 (Activation)      (None, 6, 6, 256)    0           batch_normalization_39[0][0]     
__________________________________________________________________________________________________
activation_45 (Activation)      (None, 6, 6, 64)     0           batch_normalization_42[0][0]     
__________________________________________________________________________________________________
activation_49 (Activation)      (None, 6, 6, 64)     0           batch_normalization_46[0][0]     
__________________________________________________________________________________________________
concatenate_3 (Concatenate)     (None, 6, 6, 512)    0           activation_40[0][0]              
                                                                 activation_42[0][0]              
                                                                 activation_45[0][0]              
                                                                 activation_49[0][0]              
__________________________________________________________________________________________________
conv_direct_4 (Conv2D)          (None, 6, 6, 512)    262656      concatenate_3[0][0]              
__________________________________________________________________________________________________
conv_bypass_4 (Conv2D)          (None, 6, 6, 512)    131584      pool4[0][0]                      
__________________________________________________________________________________________________
batch_normalization_47 (BatchNo (None, 6, 6, 512)    2048        conv_direct_4[0][0]              
__________________________________________________________________________________________________
batch_normalization_48 (BatchNo (None, 6, 6, 512)    2048        conv_bypass_4[0][0]              
__________________________________________________________________________________________________
activation_50 (Activation)      (None, 6, 6, 512)    0           batch_normalization_47[0][0]     
__________________________________________________________________________________________________
activation_51 (Activation)      (None, 6, 6, 512)    0           batch_normalization_48[0][0]     
__________________________________________________________________________________________________
residual4 (Add)                 (None, 6, 6, 512)    0           activation_50[0][0]              
                                                                 activation_51[0][0]              
__________________________________________________________________________________________________
activation_52 (Activation)      (None, 6, 6, 512)    0           residual4[0][0]                  
__________________________________________________________________________________________________
avg_pool (GlobalAveragePooling2 (None, 512)          0           activation_52[0][0]              
__________________________________________________________________________________________________
dense (Dense)                   (None, 50)           25650       avg_pool[0][0]                   
==================================================================================================
Total params: 800,354
Trainable params: 792,786
Non-trainable params: 7,568
__________________________________________________________________________________________________
Model: "model_1"
__________________________________________________________________________________________________
Layer (type)                    Output Shape         Param #     Connected to                     
==================================================================================================
input_2 (InputLayer)            [(None, 224, 224, 3) 0                                            
__________________________________________________________________________________________________
conv1 (Conv2D)                  (None, 112, 112, 64) 4864        input_2[0][0]                    
__________________________________________________________________________________________________
batch_normalization_49 (BatchNo (None, 112, 112, 64) 256         conv1[0][0]                      
__________________________________________________________________________________________________
activation_53 (Activation)      (None, 112, 112, 64) 0           batch_normalization_49[0][0]     
__________________________________________________________________________________________________
pool1 (MaxPooling2D)            (None, 55, 55, 64)   0           activation_53[0][0]              
__________________________________________________________________________________________________
nu_inception_1_3x3_0_3_reduce ( (None, 55, 55, 4)    260         pool1[0][0]                      
__________________________________________________________________________________________________
batch_normalization_56 (BatchNo (None, 55, 55, 4)    16          nu_inception_1_3x3_0_3_reduce[0][
__________________________________________________________________________________________________
activation_60 (Activation)      (None, 55, 55, 4)    0           batch_normalization_56[0][0]     
__________________________________________________________________________________________________
nu_inception_1_3x3_0_reduce (Co (None, 55, 55, 4)    260         pool1[0][0]                      
__________________________________________________________________________________________________
separable_conv2d_27 (SeparableC (None, 55, 55, 8)    76          activation_60[0][0]              
__________________________________________________________________________________________________
batch_normalization_53 (BatchNo (None, 55, 55, 4)    16          nu_inception_1_3x3_0_reduce[0][0]
__________________________________________________________________________________________________
batch_normalization_57 (BatchNo (None, 55, 55, 8)    32          separable_conv2d_27[0][0]        
__________________________________________________________________________________________________
activation_57 (Activation)      (None, 55, 55, 4)    0           batch_normalization_53[0][0]     
__________________________________________________________________________________________________
activation_61 (Activation)      (None, 55, 55, 8)    0           batch_normalization_57[0][0]     
__________________________________________________________________________________________________
nu_inception_1_3x3_reduce (Conv (None, 55, 55, 24)   1560        pool1[0][0]                      
__________________________________________________________________________________________________
separable_conv2d_25 (SeparableC (None, 55, 55, 8)    76          activation_57[0][0]              
__________________________________________________________________________________________________
separable_conv2d_28 (SeparableC (None, 55, 55, 8)    144         activation_61[0][0]              
__________________________________________________________________________________________________
batch_normalization_51 (BatchNo (None, 55, 55, 24)   96          nu_inception_1_3x3_reduce[0][0]  
__________________________________________________________________________________________________
batch_normalization_54 (BatchNo (None, 55, 55, 8)    32          separable_conv2d_25[0][0]        
__________________________________________________________________________________________________
batch_normalization_58 (BatchNo (None, 55, 55, 8)    32          separable_conv2d_28[0][0]        
__________________________________________________________________________________________________
activation_55 (Activation)      (None, 55, 55, 24)   0           batch_normalization_51[0][0]     
__________________________________________________________________________________________________
activation_58 (Activation)      (None, 55, 55, 8)    0           batch_normalization_54[0][0]     
__________________________________________________________________________________________________
activation_62 (Activation)      (None, 55, 55, 8)    0           batch_normalization_58[0][0]     
__________________________________________________________________________________________________
nu_inception_1_1x1 (Conv2D)     (None, 55, 55, 16)   1040        pool1[0][0]                      
__________________________________________________________________________________________________
separable_conv2d_24 (SeparableC (None, 55, 55, 32)   1016        activation_55[0][0]              
__________________________________________________________________________________________________
separable_conv2d_26 (SeparableC (None, 55, 55, 8)    144         activation_58[0][0]              
__________________________________________________________________________________________________
separable_conv2d_29 (SeparableC (None, 55, 55, 8)    144         activation_62[0][0]              
__________________________________________________________________________________________________
batch_normalization_50 (BatchNo (None, 55, 55, 16)   64          nu_inception_1_1x1[0][0]         
__________________________________________________________________________________________________
batch_normalization_52 (BatchNo (None, 55, 55, 32)   128         separable_conv2d_24[0][0]        
__________________________________________________________________________________________________
batch_normalization_55 (BatchNo (None, 55, 55, 8)    32          separable_conv2d_26[0][0]        
__________________________________________________________________________________________________
batch_normalization_59 (BatchNo (None, 55, 55, 8)    32          separable_conv2d_29[0][0]        
__________________________________________________________________________________________________
activation_54 (Activation)      (None, 55, 55, 16)   0           batch_normalization_50[0][0]     
__________________________________________________________________________________________________
activation_56 (Activation)      (None, 55, 55, 32)   0           batch_normalization_52[0][0]     
__________________________________________________________________________________________________
activation_59 (Activation)      (None, 55, 55, 8)    0           batch_normalization_55[0][0]     
__________________________________________________________________________________________________
activation_63 (Activation)      (None, 55, 55, 8)    0           batch_normalization_59[0][0]     
__________________________________________________________________________________________________
concatenate_4 (Concatenate)     (None, 55, 55, 64)   0           activation_54[0][0]              
                                                                 activation_56[0][0]              
                                                                 activation_59[0][0]              
                                                                 activation_63[0][0]              
__________________________________________________________________________________________________
conv_direct_1 (Conv2D)          (None, 55, 55, 64)   4160        concatenate_4[0][0]              
__________________________________________________________________________________________________
conv_bypass_1 (Conv2D)          (None, 55, 55, 64)   4160        pool1[0][0]                      
__________________________________________________________________________________________________
batch_normalization_60 (BatchNo (None, 55, 55, 64)   256         conv_direct_1[0][0]              
__________________________________________________________________________________________________
batch_normalization_61 (BatchNo (None, 55, 55, 64)   256         conv_bypass_1[0][0]              
__________________________________________________________________________________________________
activation_64 (Activation)      (None, 55, 55, 64)   0           batch_normalization_60[0][0]     
__________________________________________________________________________________________________
activation_65 (Activation)      (None, 55, 55, 64)   0           batch_normalization_61[0][0]     
__________________________________________________________________________________________________
residual1 (Add)                 (None, 55, 55, 64)   0           activation_64[0][0]              
                                                                 activation_65[0][0]              
__________________________________________________________________________________________________
activation_66 (Activation)      (None, 55, 55, 64)   0           residual1[0][0]                  
__________________________________________________________________________________________________
pool2 (MaxPooling2D)            (None, 27, 27, 64)   0           activation_66[0][0]              
__________________________________________________________________________________________________
nu_inception_2_3x3_0_3_reduce ( (None, 27, 27, 8)    520         pool2[0][0]                      
__________________________________________________________________________________________________
batch_normalization_68 (BatchNo (None, 27, 27, 8)    32          nu_inception_2_3x3_0_3_reduce[0][
__________________________________________________________________________________________________
activation_73 (Activation)      (None, 27, 27, 8)    0           batch_normalization_68[0][0]     
__________________________________________________________________________________________________
nu_inception_2_3x3_0_reduce (Co (None, 27, 27, 8)    520         pool2[0][0]                      
__________________________________________________________________________________________________
separable_conv2d_33 (SeparableC (None, 27, 27, 16)   216         activation_73[0][0]              
__________________________________________________________________________________________________
batch_normalization_65 (BatchNo (None, 27, 27, 8)    32          nu_inception_2_3x3_0_reduce[0][0]
__________________________________________________________________________________________________
batch_normalization_69 (BatchNo (None, 27, 27, 16)   64          separable_conv2d_33[0][0]        
__________________________________________________________________________________________________
activation_70 (Activation)      (None, 27, 27, 8)    0           batch_normalization_65[0][0]     
__________________________________________________________________________________________________
activation_74 (Activation)      (None, 27, 27, 16)   0           batch_normalization_69[0][0]     
__________________________________________________________________________________________________
nu_inception_2_3x3_reduce (Conv (None, 27, 27, 48)   3120        pool2[0][0]                      
__________________________________________________________________________________________________
separable_conv2d_31 (SeparableC (None, 27, 27, 16)   216         activation_70[0][0]              
__________________________________________________________________________________________________
separable_conv2d_34 (SeparableC (None, 27, 27, 16)   416         activation_74[0][0]              
__________________________________________________________________________________________________
batch_normalization_63 (BatchNo (None, 27, 27, 48)   192         nu_inception_2_3x3_reduce[0][0]  
__________________________________________________________________________________________________
batch_normalization_66 (BatchNo (None, 27, 27, 16)   64          separable_conv2d_31[0][0]        
__________________________________________________________________________________________________
batch_normalization_70 (BatchNo (None, 27, 27, 16)   64          separable_conv2d_34[0][0]        
__________________________________________________________________________________________________
activation_68 (Activation)      (None, 27, 27, 48)   0           batch_normalization_63[0][0]     
__________________________________________________________________________________________________
activation_71 (Activation)      (None, 27, 27, 16)   0           batch_normalization_66[0][0]     
__________________________________________________________________________________________________
activation_75 (Activation)      (None, 27, 27, 16)   0           batch_normalization_70[0][0]     
__________________________________________________________________________________________________
nu_inception_2_1x1 (Conv2D)     (None, 27, 27, 32)   2080        pool2[0][0]                      
__________________________________________________________________________________________________
separable_conv2d_30 (SeparableC (None, 27, 27, 64)   3568        activation_68[0][0]              
__________________________________________________________________________________________________
separable_conv2d_32 (SeparableC (None, 27, 27, 16)   416         activation_71[0][0]              
__________________________________________________________________________________________________
separable_conv2d_35 (SeparableC (None, 27, 27, 16)   416         activation_75[0][0]              
__________________________________________________________________________________________________
batch_normalization_62 (BatchNo (None, 27, 27, 32)   128         nu_inception_2_1x1[0][0]         
__________________________________________________________________________________________________
batch_normalization_64 (BatchNo (None, 27, 27, 64)   256         separable_conv2d_30[0][0]        
__________________________________________________________________________________________________
batch_normalization_67 (BatchNo (None, 27, 27, 16)   64          separable_conv2d_32[0][0]        
__________________________________________________________________________________________________
batch_normalization_71 (BatchNo (None, 27, 27, 16)   64          separable_conv2d_35[0][0]        
__________________________________________________________________________________________________
activation_67 (Activation)      (None, 27, 27, 32)   0           batch_normalization_62[0][0]     
__________________________________________________________________________________________________
activation_69 (Activation)      (None, 27, 27, 64)   0           batch_normalization_64[0][0]     
__________________________________________________________________________________________________
activation_72 (Activation)      (None, 27, 27, 16)   0           batch_normalization_67[0][0]     
__________________________________________________________________________________________________
activation_76 (Activation)      (None, 27, 27, 16)   0           batch_normalization_71[0][0]     
__________________________________________________________________________________________________
concatenate_5 (Concatenate)     (None, 27, 27, 128)  0           activation_67[0][0]              
                                                                 activation_69[0][0]              
                                                                 activation_72[0][0]              
                                                                 activation_76[0][0]              
__________________________________________________________________________________________________
conv_direct_2 (Conv2D)          (None, 27, 27, 128)  16512       concatenate_5[0][0]              
__________________________________________________________________________________________________
conv_bypass_2 (Conv2D)          (None, 27, 27, 128)  8320        pool2[0][0]                      
__________________________________________________________________________________________________
batch_normalization_72 (BatchNo (None, 27, 27, 128)  512         conv_direct_2[0][0]              
__________________________________________________________________________________________________
batch_normalization_73 (BatchNo (None, 27, 27, 128)  512         conv_bypass_2[0][0]              
__________________________________________________________________________________________________
activation_77 (Activation)      (None, 27, 27, 128)  0           batch_normalization_72[0][0]     
__________________________________________________________________________________________________
activation_78 (Activation)      (None, 27, 27, 128)  0           batch_normalization_73[0][0]     
__________________________________________________________________________________________________
residual2 (Add)                 (None, 27, 27, 128)  0           activation_77[0][0]              
                                                                 activation_78[0][0]              
__________________________________________________________________________________________________
activation_79 (Activation)      (None, 27, 27, 128)  0           residual2[0][0]                  
__________________________________________________________________________________________________
pool3 (MaxPooling2D)            (None, 13, 13, 128)  0           activation_79[0][0]              
__________________________________________________________________________________________________
nu_inception_3_3x3_0_3_reduce ( (None, 13, 13, 16)   2064        pool3[0][0]                      
__________________________________________________________________________________________________
batch_normalization_80 (BatchNo (None, 13, 13, 16)   64          nu_inception_3_3x3_0_3_reduce[0][
__________________________________________________________________________________________________
activation_86 (Activation)      (None, 13, 13, 16)   0           batch_normalization_80[0][0]     
__________________________________________________________________________________________________
nu_inception_3_3x3_0_reduce (Co (None, 13, 13, 16)   2064        pool3[0][0]                      
__________________________________________________________________________________________________
separable_conv2d_39 (SeparableC (None, 13, 13, 32)   688         activation_86[0][0]              
__________________________________________________________________________________________________
batch_normalization_77 (BatchNo (None, 13, 13, 16)   64          nu_inception_3_3x3_0_reduce[0][0]
__________________________________________________________________________________________________
batch_normalization_81 (BatchNo (None, 13, 13, 32)   128         separable_conv2d_39[0][0]        
__________________________________________________________________________________________________
activation_83 (Activation)      (None, 13, 13, 16)   0           batch_normalization_77[0][0]     
__________________________________________________________________________________________________
activation_87 (Activation)      (None, 13, 13, 32)   0           batch_normalization_81[0][0]     
__________________________________________________________________________________________________
nu_inception_3_3x3_reduce (Conv (None, 13, 13, 96)   12384       pool3[0][0]                      
__________________________________________________________________________________________________
separable_conv2d_37 (SeparableC (None, 13, 13, 32)   688         activation_83[0][0]              
__________________________________________________________________________________________________
separable_conv2d_40 (SeparableC (None, 13, 13, 32)   1344        activation_87[0][0]              
__________________________________________________________________________________________________
batch_normalization_75 (BatchNo (None, 13, 13, 96)   384         nu_inception_3_3x3_reduce[0][0]  
__________________________________________________________________________________________________
batch_normalization_78 (BatchNo (None, 13, 13, 32)   128         separable_conv2d_37[0][0]        
__________________________________________________________________________________________________
batch_normalization_82 (BatchNo (None, 13, 13, 32)   128         separable_conv2d_40[0][0]        
__________________________________________________________________________________________________
activation_81 (Activation)      (None, 13, 13, 96)   0           batch_normalization_75[0][0]     
__________________________________________________________________________________________________
activation_84 (Activation)      (None, 13, 13, 32)   0           batch_normalization_78[0][0]     
__________________________________________________________________________________________________
activation_88 (Activation)      (None, 13, 13, 32)   0           batch_normalization_82[0][0]     
__________________________________________________________________________________________________
nu_inception_3_1x1 (Conv2D)     (None, 13, 13, 64)   8256        pool3[0][0]                      
__________________________________________________________________________________________________
separable_conv2d_36 (SeparableC (None, 13, 13, 128)  13280       activation_81[0][0]              
__________________________________________________________________________________________________
separable_conv2d_38 (SeparableC (None, 13, 13, 32)   1344        activation_84[0][0]              
__________________________________________________________________________________________________
separable_conv2d_41 (SeparableC (None, 13, 13, 32)   1344        activation_88[0][0]              
__________________________________________________________________________________________________
batch_normalization_74 (BatchNo (None, 13, 13, 64)   256         nu_inception_3_1x1[0][0]         
__________________________________________________________________________________________________
batch_normalization_76 (BatchNo (None, 13, 13, 128)  512         separable_conv2d_36[0][0]        
__________________________________________________________________________________________________
batch_normalization_79 (BatchNo (None, 13, 13, 32)   128         separable_conv2d_38[0][0]        
__________________________________________________________________________________________________
batch_normalization_83 (BatchNo (None, 13, 13, 32)   128         separable_conv2d_41[0][0]        
__________________________________________________________________________________________________
activation_80 (Activation)      (None, 13, 13, 64)   0           batch_normalization_74[0][0]     
__________________________________________________________________________________________________
activation_82 (Activation)      (None, 13, 13, 128)  0           batch_normalization_76[0][0]     
__________________________________________________________________________________________________
activation_85 (Activation)      (None, 13, 13, 32)   0           batch_normalization_79[0][0]     
__________________________________________________________________________________________________
activation_89 (Activation)      (None, 13, 13, 32)   0           batch_normalization_83[0][0]     
__________________________________________________________________________________________________
concatenate_6 (Concatenate)     (None, 13, 13, 256)  0           activation_80[0][0]              
                                                                 activation_82[0][0]              
                                                                 activation_85[0][0]              
                                                                 activation_89[0][0]              
__________________________________________________________________________________________________
conv_direct_3 (Conv2D)          (None, 13, 13, 256)  65792       concatenate_6[0][0]              
__________________________________________________________________________________________________
conv_bypass_3 (Conv2D)          (None, 13, 13, 256)  33024       pool3[0][0]                      
__________________________________________________________________________________________________
batch_normalization_84 (BatchNo (None, 13, 13, 256)  1024        conv_direct_3[0][0]              
__________________________________________________________________________________________________
batch_normalization_85 (BatchNo (None, 13, 13, 256)  1024        conv_bypass_3[0][0]              
__________________________________________________________________________________________________
activation_90 (Activation)      (None, 13, 13, 256)  0           batch_normalization_84[0][0]     
__________________________________________________________________________________________________
activation_91 (Activation)      (None, 13, 13, 256)  0           batch_normalization_85[0][0]     
__________________________________________________________________________________________________
residual3 (Add)                 (None, 13, 13, 256)  0           activation_90[0][0]              
                                                                 activation_91[0][0]              
__________________________________________________________________________________________________
activation_92 (Activation)      (None, 13, 13, 256)  0           residual3[0][0]                  
__________________________________________________________________________________________________
pool4 (MaxPooling2D)            (None, 6, 6, 256)    0           activation_92[0][0]              
__________________________________________________________________________________________________
nu_inception_4_3x3_0_3_reduce ( (None, 6, 6, 32)     8224        pool4[0][0]                      
__________________________________________________________________________________________________
batch_normalization_92 (BatchNo (None, 6, 6, 32)     128         nu_inception_4_3x3_0_3_reduce[0][
__________________________________________________________________________________________________
activation_99 (Activation)      (None, 6, 6, 32)     0           batch_normalization_92[0][0]     
__________________________________________________________________________________________________
nu_inception_4_3x3_0_reduce (Co (None, 6, 6, 32)     8224        pool4[0][0]                      
__________________________________________________________________________________________________
separable_conv2d_45 (SeparableC (None, 6, 6, 64)     2400        activation_99[0][0]              
__________________________________________________________________________________________________
batch_normalization_89 (BatchNo (None, 6, 6, 32)     128         nu_inception_4_3x3_0_reduce[0][0]
__________________________________________________________________________________________________
batch_normalization_93 (BatchNo (None, 6, 6, 64)     256         separable_conv2d_45[0][0]        
__________________________________________________________________________________________________
activation_96 (Activation)      (None, 6, 6, 32)     0           batch_normalization_89[0][0]     
__________________________________________________________________________________________________
activation_100 (Activation)     (None, 6, 6, 64)     0           batch_normalization_93[0][0]     
__________________________________________________________________________________________________
nu_inception_4_3x3_reduce (Conv (None, 6, 6, 192)    49344       pool4[0][0]                      
__________________________________________________________________________________________________
separable_conv2d_43 (SeparableC (None, 6, 6, 64)     2400        activation_96[0][0]              
__________________________________________________________________________________________________
separable_conv2d_46 (SeparableC (None, 6, 6, 64)     4736        activation_100[0][0]             
__________________________________________________________________________________________________
batch_normalization_87 (BatchNo (None, 6, 6, 192)    768         nu_inception_4_3x3_reduce[0][0]  
__________________________________________________________________________________________________
batch_normalization_90 (BatchNo (None, 6, 6, 64)     256         separable_conv2d_43[0][0]        
__________________________________________________________________________________________________
batch_normalization_94 (BatchNo (None, 6, 6, 64)     256         separable_conv2d_46[0][0]        
__________________________________________________________________________________________________
activation_94 (Activation)      (None, 6, 6, 192)    0           batch_normalization_87[0][0]     
__________________________________________________________________________________________________
activation_97 (Activation)      (None, 6, 6, 64)     0           batch_normalization_90[0][0]     
__________________________________________________________________________________________________
activation_101 (Activation)     (None, 6, 6, 64)     0           batch_normalization_94[0][0]     
__________________________________________________________________________________________________
nu_inception_4_1x1 (Conv2D)     (None, 6, 6, 128)    32896       pool4[0][0]                      
__________________________________________________________________________________________________
separable_conv2d_42 (SeparableC (None, 6, 6, 256)    51136       activation_94[0][0]              
__________________________________________________________________________________________________
separable_conv2d_44 (SeparableC (None, 6, 6, 64)     4736        activation_97[0][0]              
__________________________________________________________________________________________________
separable_conv2d_47 (SeparableC (None, 6, 6, 64)     4736        activation_101[0][0]             
__________________________________________________________________________________________________
batch_normalization_86 (BatchNo (None, 6, 6, 128)    512         nu_inception_4_1x1[0][0]         
__________________________________________________________________________________________________
batch_normalization_88 (BatchNo (None, 6, 6, 256)    1024        separable_conv2d_42[0][0]        
__________________________________________________________________________________________________
batch_normalization_91 (BatchNo (None, 6, 6, 64)     256         separable_conv2d_44[0][0]        
__________________________________________________________________________________________________
batch_normalization_95 (BatchNo (None, 6, 6, 64)     256         separable_conv2d_47[0][0]        
__________________________________________________________________________________________________
activation_93 (Activation)      (None, 6, 6, 128)    0           batch_normalization_86[0][0]     
__________________________________________________________________________________________________
activation_95 (Activation)      (None, 6, 6, 256)    0           batch_normalization_88[0][0]     
__________________________________________________________________________________________________
activation_98 (Activation)      (None, 6, 6, 64)     0           batch_normalization_91[0][0]     
__________________________________________________________________________________________________
activation_102 (Activation)     (None, 6, 6, 64)     0           batch_normalization_95[0][0]     
__________________________________________________________________________________________________
concatenate_7 (Concatenate)     (None, 6, 6, 512)    0           activation_93[0][0]              
                                                                 activation_95[0][0]              
                                                                 activation_98[0][0]              
                                                                 activation_102[0][0]             
__________________________________________________________________________________________________
conv_direct_4 (Conv2D)          (None, 6, 6, 512)    262656      concatenate_7[0][0]              
__________________________________________________________________________________________________
conv_bypass_4 (Conv2D)          (None, 6, 6, 512)    131584      pool4[0][0]                      
__________________________________________________________________________________________________
batch_normalization_96 (BatchNo (None, 6, 6, 512)    2048        conv_direct_4[0][0]              
__________________________________________________________________________________________________
batch_normalization_97 (BatchNo (None, 6, 6, 512)    2048        conv_bypass_4[0][0]              
__________________________________________________________________________________________________
activation_103 (Activation)     (None, 6, 6, 512)    0           batch_normalization_96[0][0]     
__________________________________________________________________________________________________
activation_104 (Activation)     (None, 6, 6, 512)    0           batch_normalization_97[0][0]     
__________________________________________________________________________________________________
residual4 (Add)                 (None, 6, 6, 512)    0           activation_103[0][0]             
                                                                 activation_104[0][0]             
__________________________________________________________________________________________________
activation_105 (Activation)     (None, 6, 6, 512)    0           residual4[0][0]                  
__________________________________________________________________________________________________
avg_pool (GlobalAveragePooling2 (None, 512)          0           activation_105[0][0]             
__________________________________________________________________________________________________
dense_1 (Dense)                 (None, 50)           25650       avg_pool[0][0]                   
==================================================================================================
Total params: 800,354
Trainable params: 792,786
Non-trainable params: 7,568
__________________________________________________________________________________________________
Epoch 1/100
995/995 - 499s - loss: 3.2033 - accuracy: 0.3733 - val_loss: 2.8820 - val_accuracy: 0.3900
…
995/995 - 133s - loss: 0.0639 - accuracy: 1.0000 - val_loss: 1.1290 - val_accuracy: 0.7834

Epoch 00099: val_loss did not improve from 1.08720
Epoch 100/100
995/995 - 133s - loss: 0.0638 - accuracy: 1.0000 - val_loss: 1.1295 - val_accuracy: 0.7827

Epoch 00100: val_loss did not improve from 1.08720
Model: "model_2"
__________________________________________________________________________________________________
Layer (type)                    Output Shape         Param #     Connected to                     
==================================================================================================
input_3 (InputLayer)            [(None, 224, 224, 3) 0                                            
__________________________________________________________________________________________________
conv1 (Conv2D)                  (None, 112, 112, 64) 4864        input_3[0][0]                    
__________________________________________________________________________________________________
batch_normalization_98 (BatchNo (None, 112, 112, 64) 256         conv1[0][0]                      
__________________________________________________________________________________________________
activation_106 (Activation)     (None, 112, 112, 64) 0           batch_normalization_98[0][0]     
__________________________________________________________________________________________________
pool1 (MaxPooling2D)            (None, 55, 55, 64)   0           activation_106[0][0]             
__________________________________________________________________________________________________
nu_inception_1_3x3_0_3_reduce ( (None, 55, 55, 4)    260         pool1[0][0]                      
__________________________________________________________________________________________________
batch_normalization_105 (BatchN (None, 55, 55, 4)    16          nu_inception_1_3x3_0_3_reduce[0][
__________________________________________________________________________________________________
activation_113 (Activation)     (None, 55, 55, 4)    0           batch_normalization_105[0][0]    
__________________________________________________________________________________________________
nu_inception_1_3x3_0_reduce (Co (None, 55, 55, 4)    260         pool1[0][0]                      
__________________________________________________________________________________________________
separable_conv2d_51 (SeparableC (None, 55, 55, 8)    76          activation_113[0][0]             
__________________________________________________________________________________________________
batch_normalization_102 (BatchN (None, 55, 55, 4)    16          nu_inception_1_3x3_0_reduce[0][0]
__________________________________________________________________________________________________
batch_normalization_106 (BatchN (None, 55, 55, 8)    32          separable_conv2d_51[0][0]        
__________________________________________________________________________________________________
activation_110 (Activation)     (None, 55, 55, 4)    0           batch_normalization_102[0][0]    
__________________________________________________________________________________________________
activation_114 (Activation)     (None, 55, 55, 8)    0           batch_normalization_106[0][0]    
__________________________________________________________________________________________________
nu_inception_1_3x3_reduce (Conv (None, 55, 55, 24)   1560        pool1[0][0]                      
__________________________________________________________________________________________________
separable_conv2d_49 (SeparableC (None, 55, 55, 8)    76          activation_110[0][0]             
__________________________________________________________________________________________________
separable_conv2d_52 (SeparableC (None, 55, 55, 8)    144         activation_114[0][0]             
__________________________________________________________________________________________________
batch_normalization_100 (BatchN (None, 55, 55, 24)   96          nu_inception_1_3x3_reduce[0][0]  
__________________________________________________________________________________________________
batch_normalization_103 (BatchN (None, 55, 55, 8)    32          separable_conv2d_49[0][0]        
__________________________________________________________________________________________________
batch_normalization_107 (BatchN (None, 55, 55, 8)    32          separable_conv2d_52[0][0]        
__________________________________________________________________________________________________
activation_108 (Activation)     (None, 55, 55, 24)   0           batch_normalization_100[0][0]    
__________________________________________________________________________________________________
activation_111 (Activation)     (None, 55, 55, 8)    0           batch_normalization_103[0][0]    
__________________________________________________________________________________________________
activation_115 (Activation)     (None, 55, 55, 8)    0           batch_normalization_107[0][0]    
__________________________________________________________________________________________________
nu_inception_1_1x1 (Conv2D)     (None, 55, 55, 16)   1040        pool1[0][0]                      
__________________________________________________________________________________________________
separable_conv2d_48 (SeparableC (None, 55, 55, 32)   1016        activation_108[0][0]             
__________________________________________________________________________________________________
separable_conv2d_50 (SeparableC (None, 55, 55, 8)    144         activation_111[0][0]             
__________________________________________________________________________________________________
separable_conv2d_53 (SeparableC (None, 55, 55, 8)    144         activation_115[0][0]             
__________________________________________________________________________________________________
batch_normalization_99 (BatchNo (None, 55, 55, 16)   64          nu_inception_1_1x1[0][0]         
__________________________________________________________________________________________________
batch_normalization_101 (BatchN (None, 55, 55, 32)   128         separable_conv2d_48[0][0]        
__________________________________________________________________________________________________
batch_normalization_104 (BatchN (None, 55, 55, 8)    32          separable_conv2d_50[0][0]        
__________________________________________________________________________________________________
batch_normalization_108 (BatchN (None, 55, 55, 8)    32          separable_conv2d_53[0][0]        
__________________________________________________________________________________________________
activation_107 (Activation)     (None, 55, 55, 16)   0           batch_normalization_99[0][0]     
__________________________________________________________________________________________________
activation_109 (Activation)     (None, 55, 55, 32)   0           batch_normalization_101[0][0]    
__________________________________________________________________________________________________
activation_112 (Activation)     (None, 55, 55, 8)    0           batch_normalization_104[0][0]    
__________________________________________________________________________________________________
activation_116 (Activation)     (None, 55, 55, 8)    0           batch_normalization_108[0][0]    
__________________________________________________________________________________________________
concatenate_8 (Concatenate)     (None, 55, 55, 64)   0           activation_107[0][0]             
                                                                 activation_109[0][0]             
                                                                 activation_112[0][0]             
                                                                 activation_116[0][0]             
__________________________________________________________________________________________________
conv_direct_1 (Conv2D)          (None, 55, 55, 64)   4160        concatenate_8[0][0]              
__________________________________________________________________________________________________
conv_bypass_1 (Conv2D)          (None, 55, 55, 64)   4160        pool1[0][0]                      
__________________________________________________________________________________________________
batch_normalization_109 (BatchN (None, 55, 55, 64)   256         conv_direct_1[0][0]              
__________________________________________________________________________________________________
batch_normalization_110 (BatchN (None, 55, 55, 64)   256         conv_bypass_1[0][0]              
__________________________________________________________________________________________________
activation_117 (Activation)     (None, 55, 55, 64)   0           batch_normalization_109[0][0]    
__________________________________________________________________________________________________
activation_118 (Activation)     (None, 55, 55, 64)   0           batch_normalization_110[0][0]    
__________________________________________________________________________________________________
residual1 (Add)                 (None, 55, 55, 64)   0           activation_117[0][0]             
                                                                 activation_118[0][0]             
__________________________________________________________________________________________________
activation_119 (Activation)     (None, 55, 55, 64)   0           residual1[0][0]                  
__________________________________________________________________________________________________
pool2 (MaxPooling2D)            (None, 27, 27, 64)   0           activation_119[0][0]             
__________________________________________________________________________________________________
nu_inception_2_3x3_0_3_reduce ( (None, 27, 27, 8)    520         pool2[0][0]                      
__________________________________________________________________________________________________
batch_normalization_117 (BatchN (None, 27, 27, 8)    32          nu_inception_2_3x3_0_3_reduce[0][
__________________________________________________________________________________________________
activation_126 (Activation)     (None, 27, 27, 8)    0           batch_normalization_117[0][0]    
__________________________________________________________________________________________________
nu_inception_2_3x3_0_reduce (Co (None, 27, 27, 8)    520         pool2[0][0]                      
__________________________________________________________________________________________________
separable_conv2d_57 (SeparableC (None, 27, 27, 16)   216         activation_126[0][0]             
__________________________________________________________________________________________________
batch_normalization_114 (BatchN (None, 27, 27, 8)    32          nu_inception_2_3x3_0_reduce[0][0]
__________________________________________________________________________________________________
batch_normalization_118 (BatchN (None, 27, 27, 16)   64          separable_conv2d_57[0][0]        
__________________________________________________________________________________________________
activation_123 (Activation)     (None, 27, 27, 8)    0           batch_normalization_114[0][0]    
__________________________________________________________________________________________________
activation_127 (Activation)     (None, 27, 27, 16)   0           batch_normalization_118[0][0]    
__________________________________________________________________________________________________
nu_inception_2_3x3_reduce (Conv (None, 27, 27, 48)   3120        pool2[0][0]                      
__________________________________________________________________________________________________
separable_conv2d_55 (SeparableC (None, 27, 27, 16)   216         activation_123[0][0]             
__________________________________________________________________________________________________
separable_conv2d_58 (SeparableC (None, 27, 27, 16)   416         activation_127[0][0]             
__________________________________________________________________________________________________
batch_normalization_112 (BatchN (None, 27, 27, 48)   192         nu_inception_2_3x3_reduce[0][0]  
__________________________________________________________________________________________________
batch_normalization_115 (BatchN (None, 27, 27, 16)   64          separable_conv2d_55[0][0]        
__________________________________________________________________________________________________
batch_normalization_119 (BatchN (None, 27, 27, 16)   64          separable_conv2d_58[0][0]        
__________________________________________________________________________________________________
activation_121 (Activation)     (None, 27, 27, 48)   0           batch_normalization_112[0][0]    
__________________________________________________________________________________________________
activation_124 (Activation)     (None, 27, 27, 16)   0           batch_normalization_115[0][0]    
__________________________________________________________________________________________________
activation_128 (Activation)     (None, 27, 27, 16)   0           batch_normalization_119[0][0]    
__________________________________________________________________________________________________
nu_inception_2_1x1 (Conv2D)     (None, 27, 27, 32)   2080        pool2[0][0]                      
__________________________________________________________________________________________________
separable_conv2d_54 (SeparableC (None, 27, 27, 64)   3568        activation_121[0][0]             
__________________________________________________________________________________________________
separable_conv2d_56 (SeparableC (None, 27, 27, 16)   416         activation_124[0][0]             
__________________________________________________________________________________________________
separable_conv2d_59 (SeparableC (None, 27, 27, 16)   416         activation_128[0][0]             
__________________________________________________________________________________________________
batch_normalization_111 (BatchN (None, 27, 27, 32)   128         nu_inception_2_1x1[0][0]         
__________________________________________________________________________________________________
batch_normalization_113 (BatchN (None, 27, 27, 64)   256         separable_conv2d_54[0][0]        
__________________________________________________________________________________________________
batch_normalization_116 (BatchN (None, 27, 27, 16)   64          separable_conv2d_56[0][0]        
__________________________________________________________________________________________________
batch_normalization_120 (BatchN (None, 27, 27, 16)   64          separable_conv2d_59[0][0]        
__________________________________________________________________________________________________
activation_120 (Activation)     (None, 27, 27, 32)   0           batch_normalization_111[0][0]    
__________________________________________________________________________________________________
activation_122 (Activation)     (None, 27, 27, 64)   0           batch_normalization_113[0][0]    
__________________________________________________________________________________________________
activation_125 (Activation)     (None, 27, 27, 16)   0           batch_normalization_116[0][0]    
__________________________________________________________________________________________________
activation_129 (Activation)     (None, 27, 27, 16)   0           batch_normalization_120[0][0]    
__________________________________________________________________________________________________
concatenate_9 (Concatenate)     (None, 27, 27, 128)  0           activation_120[0][0]             
                                                                 activation_122[0][0]             
                                                                 activation_125[0][0]             
                                                                 activation_129[0][0]             
__________________________________________________________________________________________________
conv_direct_2 (Conv2D)          (None, 27, 27, 128)  16512       concatenate_9[0][0]              
__________________________________________________________________________________________________
conv_bypass_2 (Conv2D)          (None, 27, 27, 128)  8320        pool2[0][0]                      
__________________________________________________________________________________________________
batch_normalization_121 (BatchN (None, 27, 27, 128)  512         conv_direct_2[0][0]              
__________________________________________________________________________________________________
batch_normalization_122 (BatchN (None, 27, 27, 128)  512         conv_bypass_2[0][0]              
__________________________________________________________________________________________________
activation_130 (Activation)     (None, 27, 27, 128)  0           batch_normalization_121[0][0]    
__________________________________________________________________________________________________
activation_131 (Activation)     (None, 27, 27, 128)  0           batch_normalization_122[0][0]    
__________________________________________________________________________________________________
residual2 (Add)                 (None, 27, 27, 128)  0           activation_130[0][0]             
                                                                 activation_131[0][0]             
__________________________________________________________________________________________________
activation_132 (Activation)     (None, 27, 27, 128)  0           residual2[0][0]                  
__________________________________________________________________________________________________
pool3 (MaxPooling2D)            (None, 13, 13, 128)  0           activation_132[0][0]             
__________________________________________________________________________________________________
nu_inception_3_3x3_0_3_reduce ( (None, 13, 13, 16)   2064        pool3[0][0]                      
__________________________________________________________________________________________________
batch_normalization_129 (BatchN (None, 13, 13, 16)   64          nu_inception_3_3x3_0_3_reduce[0][
__________________________________________________________________________________________________
activation_139 (Activation)     (None, 13, 13, 16)   0           batch_normalization_129[0][0]    
__________________________________________________________________________________________________
nu_inception_3_3x3_0_reduce (Co (None, 13, 13, 16)   2064        pool3[0][0]                      
__________________________________________________________________________________________________
separable_conv2d_63 (SeparableC (None, 13, 13, 32)   688         activation_139[0][0]             
__________________________________________________________________________________________________
batch_normalization_126 (BatchN (None, 13, 13, 16)   64          nu_inception_3_3x3_0_reduce[0][0]
__________________________________________________________________________________________________
batch_normalization_130 (BatchN (None, 13, 13, 32)   128         separable_conv2d_63[0][0]        
__________________________________________________________________________________________________
activation_136 (Activation)     (None, 13, 13, 16)   0           batch_normalization_126[0][0]    
__________________________________________________________________________________________________
activation_140 (Activation)     (None, 13, 13, 32)   0           batch_normalization_130[0][0]    
__________________________________________________________________________________________________
nu_inception_3_3x3_reduce (Conv (None, 13, 13, 96)   12384       pool3[0][0]                      
__________________________________________________________________________________________________
separable_conv2d_61 (SeparableC (None, 13, 13, 32)   688         activation_136[0][0]             
__________________________________________________________________________________________________
separable_conv2d_64 (SeparableC (None, 13, 13, 32)   1344        activation_140[0][0]             
__________________________________________________________________________________________________
batch_normalization_124 (BatchN (None, 13, 13, 96)   384         nu_inception_3_3x3_reduce[0][0]  
__________________________________________________________________________________________________
batch_normalization_127 (BatchN (None, 13, 13, 32)   128         separable_conv2d_61[0][0]        
__________________________________________________________________________________________________
batch_normalization_131 (BatchN (None, 13, 13, 32)   128         separable_conv2d_64[0][0]        
__________________________________________________________________________________________________
activation_134 (Activation)     (None, 13, 13, 96)   0           batch_normalization_124[0][0]    
__________________________________________________________________________________________________
activation_137 (Activation)     (None, 13, 13, 32)   0           batch_normalization_127[0][0]    
__________________________________________________________________________________________________
activation_141 (Activation)     (None, 13, 13, 32)   0           batch_normalization_131[0][0]    
__________________________________________________________________________________________________
nu_inception_3_1x1 (Conv2D)     (None, 13, 13, 64)   8256        pool3[0][0]                      
__________________________________________________________________________________________________
separable_conv2d_60 (SeparableC (None, 13, 13, 128)  13280       activation_134[0][0]             
__________________________________________________________________________________________________
separable_conv2d_62 (SeparableC (None, 13, 13, 32)   1344        activation_137[0][0]             
__________________________________________________________________________________________________
separable_conv2d_65 (SeparableC (None, 13, 13, 32)   1344        activation_141[0][0]             
__________________________________________________________________________________________________
batch_normalization_123 (BatchN (None, 13, 13, 64)   256         nu_inception_3_1x1[0][0]         
__________________________________________________________________________________________________
batch_normalization_125 (BatchN (None, 13, 13, 128)  512         separable_conv2d_60[0][0]        
__________________________________________________________________________________________________
batch_normalization_128 (BatchN (None, 13, 13, 32)   128         separable_conv2d_62[0][0]        
__________________________________________________________________________________________________
batch_normalization_132 (BatchN (None, 13, 13, 32)   128         separable_conv2d_65[0][0]        
__________________________________________________________________________________________________
activation_133 (Activation)     (None, 13, 13, 64)   0           batch_normalization_123[0][0]    
__________________________________________________________________________________________________
activation_135 (Activation)     (None, 13, 13, 128)  0           batch_normalization_125[0][0]    
__________________________________________________________________________________________________
activation_138 (Activation)     (None, 13, 13, 32)   0           batch_normalization_128[0][0]    
__________________________________________________________________________________________________
activation_142 (Activation)     (None, 13, 13, 32)   0           batch_normalization_132[0][0]    
__________________________________________________________________________________________________
concatenate_10 (Concatenate)    (None, 13, 13, 256)  0           activation_133[0][0]             
                                                                 activation_135[0][0]             
                                                                 activation_138[0][0]             
                                                                 activation_142[0][0]             
__________________________________________________________________________________________________
conv_direct_3 (Conv2D)          (None, 13, 13, 256)  65792       concatenate_10[0][0]             
__________________________________________________________________________________________________
conv_bypass_3 (Conv2D)          (None, 13, 13, 256)  33024       pool3[0][0]                      
__________________________________________________________________________________________________
batch_normalization_133 (BatchN (None, 13, 13, 256)  1024        conv_direct_3[0][0]              
__________________________________________________________________________________________________
batch_normalization_134 (BatchN (None, 13, 13, 256)  1024        conv_bypass_3[0][0]              
__________________________________________________________________________________________________
activation_143 (Activation)     (None, 13, 13, 256)  0           batch_normalization_133[0][0]    
__________________________________________________________________________________________________
activation_144 (Activation)     (None, 13, 13, 256)  0           batch_normalization_134[0][0]    
__________________________________________________________________________________________________
residual3 (Add)                 (None, 13, 13, 256)  0           activation_143[0][0]             
                                                                 activation_144[0][0]             
__________________________________________________________________________________________________
activation_145 (Activation)     (None, 13, 13, 256)  0           residual3[0][0]                  
__________________________________________________________________________________________________
pool4 (MaxPooling2D)            (None, 6, 6, 256)    0           activation_145[0][0]             
__________________________________________________________________________________________________
nu_inception_4_3x3_0_3_reduce ( (None, 6, 6, 32)     8224        pool4[0][0]                      
__________________________________________________________________________________________________
batch_normalization_141 (BatchN (None, 6, 6, 32)     128         nu_inception_4_3x3_0_3_reduce[0][
__________________________________________________________________________________________________
activation_152 (Activation)     (None, 6, 6, 32)     0           batch_normalization_141[0][0]    
__________________________________________________________________________________________________
nu_inception_4_3x3_0_reduce (Co (None, 6, 6, 32)     8224        pool4[0][0]                      
__________________________________________________________________________________________________
separable_conv2d_69 (SeparableC (None, 6, 6, 64)     2400        activation_152[0][0]             
__________________________________________________________________________________________________
batch_normalization_138 (BatchN (None, 6, 6, 32)     128         nu_inception_4_3x3_0_reduce[0][0]
__________________________________________________________________________________________________
batch_normalization_142 (BatchN (None, 6, 6, 64)     256         separable_conv2d_69[0][0]        
__________________________________________________________________________________________________
activation_149 (Activation)     (None, 6, 6, 32)     0           batch_normalization_138[0][0]    
__________________________________________________________________________________________________
activation_153 (Activation)     (None, 6, 6, 64)     0           batch_normalization_142[0][0]    
__________________________________________________________________________________________________
nu_inception_4_3x3_reduce (Conv (None, 6, 6, 192)    49344       pool4[0][0]                      
__________________________________________________________________________________________________
separable_conv2d_67 (SeparableC (None, 6, 6, 64)     2400        activation_149[0][0]             
__________________________________________________________________________________________________
separable_conv2d_70 (SeparableC (None, 6, 6, 64)     4736        activation_153[0][0]             
__________________________________________________________________________________________________
batch_normalization_136 (BatchN (None, 6, 6, 192)    768         nu_inception_4_3x3_reduce[0][0]  
__________________________________________________________________________________________________
batch_normalization_139 (BatchN (None, 6, 6, 64)     256         separable_conv2d_67[0][0]        
__________________________________________________________________________________________________
batch_normalization_143 (BatchN (None, 6, 6, 64)     256         separable_conv2d_70[0][0]        
__________________________________________________________________________________________________
activation_147 (Activation)     (None, 6, 6, 192)    0           batch_normalization_136[0][0]    
__________________________________________________________________________________________________
activation_150 (Activation)     (None, 6, 6, 64)     0           batch_normalization_139[0][0]    
__________________________________________________________________________________________________
activation_154 (Activation)     (None, 6, 6, 64)     0           batch_normalization_143[0][0]    
__________________________________________________________________________________________________
nu_inception_4_1x1 (Conv2D)     (None, 6, 6, 128)    32896       pool4[0][0]                      
__________________________________________________________________________________________________
separable_conv2d_66 (SeparableC (None, 6, 6, 256)    51136       activation_147[0][0]             
__________________________________________________________________________________________________
separable_conv2d_68 (SeparableC (None, 6, 6, 64)     4736        activation_150[0][0]             
__________________________________________________________________________________________________
separable_conv2d_71 (SeparableC (None, 6, 6, 64)     4736        activation_154[0][0]             
__________________________________________________________________________________________________
batch_normalization_135 (BatchN (None, 6, 6, 128)    512         nu_inception_4_1x1[0][0]         
__________________________________________________________________________________________________
batch_normalization_137 (BatchN (None, 6, 6, 256)    1024        separable_conv2d_66[0][0]        
__________________________________________________________________________________________________
batch_normalization_140 (BatchN (None, 6, 6, 64)     256         separable_conv2d_68[0][0]        
__________________________________________________________________________________________________
batch_normalization_144 (BatchN (None, 6, 6, 64)     256         separable_conv2d_71[0][0]        
__________________________________________________________________________________________________
activation_146 (Activation)     (None, 6, 6, 128)    0           batch_normalization_135[0][0]    
__________________________________________________________________________________________________
activation_148 (Activation)     (None, 6, 6, 256)    0           batch_normalization_137[0][0]    
__________________________________________________________________________________________________
activation_151 (Activation)     (None, 6, 6, 64)     0           batch_normalization_140[0][0]    
__________________________________________________________________________________________________
activation_155 (Activation)     (None, 6, 6, 64)     0           batch_normalization_144[0][0]    
__________________________________________________________________________________________________
concatenate_11 (Concatenate)    (None, 6, 6, 512)    0           activation_146[0][0]             
                                                                 activation_148[0][0]             
                                                                 activation_151[0][0]             
                                                                 activation_155[0][0]             
__________________________________________________________________________________________________
conv_direct_4 (Conv2D)          (None, 6, 6, 512)    262656      concatenate_11[0][0]             
__________________________________________________________________________________________________
conv_bypass_4 (Conv2D)          (None, 6, 6, 512)    131584      pool4[0][0]                      
__________________________________________________________________________________________________
batch_normalization_145 (BatchN (None, 6, 6, 512)    2048        conv_direct_4[0][0]              
__________________________________________________________________________________________________
batch_normalization_146 (BatchN (None, 6, 6, 512)    2048        conv_bypass_4[0][0]              
__________________________________________________________________________________________________
activation_156 (Activation)     (None, 6, 6, 512)    0           batch_normalization_145[0][0]    
__________________________________________________________________________________________________
activation_157 (Activation)     (None, 6, 6, 512)    0           batch_normalization_146[0][0]    
__________________________________________________________________________________________________
residual4 (Add)                 (None, 6, 6, 512)    0           activation_156[0][0]             
                                                                 activation_157[0][0]             
__________________________________________________________________________________________________
activation_158 (Activation)     (None, 6, 6, 512)    0           residual4[0][0]                  
__________________________________________________________________________________________________
avg_pool (GlobalAveragePooling2 (None, 512)          0           activation_158[0][0]             
__________________________________________________________________________________________________
dense_2 (Dense)                 (None, 50)           25650       avg_pool[0][0]                   
==================================================================================================
Total params: 800,354
Trainable params: 792,786
Non-trainable params: 7,568
__________________________________________________________________________________________________
 1/25 [>.............................] - ETA: 3:25 - loss: 1.2336 - accuracy: 0.7500
…
