Found 12720 files belonging to 50 classes.
Found 1413 files belonging to 50 classes.
Found 1597 files belonging to 50 classes.
Model: "model"
__________________________________________________________________________________________________
Layer (type)                    Output Shape         Param #     Connected to                     
==================================================================================================
input_1 (InputLayer)            [(None, 224, 224, 3) 0                                            
__________________________________________________________________________________________________
conv1 (Conv2D)                  (None, 112, 112, 64) 4864        input_1[0][0]                    
__________________________________________________________________________________________________
batch_normalization (BatchNorma (None, 112, 112, 64) 256         conv1[0][0]                      
__________________________________________________________________________________________________
activation (Activation)         (None, 112, 112, 64) 0           batch_normalization[0][0]        
__________________________________________________________________________________________________
pool1 (MaxPooling2D)            (None, 55, 55, 64)   0           activation[0][0]                 
__________________________________________________________________________________________________
nu_inception_1_3x3_0_4_reduce ( (None, 55, 55, 4)    260         pool1[0][0]                      
__________________________________________________________________________________________________
batch_normalization_11 (BatchNo (None, 55, 55, 4)    16          nu_inception_1_3x3_0_4_reduce[0][
__________________________________________________________________________________________________
activation_11 (Activation)      (None, 55, 55, 4)    0           batch_normalization_11[0][0]     
__________________________________________________________________________________________________
nu_inception_1_3x3_0_3_reduce ( (None, 55, 55, 4)    260         pool1[0][0]                      
__________________________________________________________________________________________________
nu_inception_1_3x3_1_4 (Conv2D) (None, 55, 55, 8)    296         activation_11[0][0]              
__________________________________________________________________________________________________
batch_normalization_7 (BatchNor (None, 55, 55, 4)    16          nu_inception_1_3x3_0_3_reduce[0][
__________________________________________________________________________________________________
batch_normalization_12 (BatchNo (None, 55, 55, 8)    32          nu_inception_1_3x3_1_4[0][0]     
__________________________________________________________________________________________________
activation_7 (Activation)       (None, 55, 55, 4)    0           batch_normalization_7[0][0]      
__________________________________________________________________________________________________
activation_12 (Activation)      (None, 55, 55, 8)    0           batch_normalization_12[0][0]     
__________________________________________________________________________________________________
nu_inception_1_3x3_0_reduce (Co (None, 55, 55, 4)    260         pool1[0][0]                      
__________________________________________________________________________________________________
nu_inception_1_3x3_1_3 (Conv2D) (None, 55, 55, 8)    296         activation_7[0][0]               
__________________________________________________________________________________________________
nu_inception_1_3x3_2_4 (Conv2D) (None, 55, 55, 8)    584         activation_12[0][0]              
__________________________________________________________________________________________________
batch_normalization_4 (BatchNor (None, 55, 55, 4)    16          nu_inception_1_3x3_0_reduce[0][0]
__________________________________________________________________________________________________
batch_normalization_8 (BatchNor (None, 55, 55, 8)    32          nu_inception_1_3x3_1_3[0][0]     
__________________________________________________________________________________________________
batch_normalization_13 (BatchNo (None, 55, 55, 8)    32          nu_inception_1_3x3_2_4[0][0]     
__________________________________________________________________________________________________
activation_4 (Activation)       (None, 55, 55, 4)    0           batch_normalization_4[0][0]      
__________________________________________________________________________________________________
activation_8 (Activation)       (None, 55, 55, 8)    0           batch_normalization_8[0][0]      
__________________________________________________________________________________________________
activation_13 (Activation)      (None, 55, 55, 8)    0           batch_normalization_13[0][0]     
__________________________________________________________________________________________________
nu_inception_1_3x3_reduce (Conv (None, 55, 55, 16)   1040        pool1[0][0]                      
__________________________________________________________________________________________________
nu_inception_1_3x3_1 (Conv2D)   (None, 55, 55, 8)    296         activation_4[0][0]               
__________________________________________________________________________________________________
nu_inception_1_3x3_2_3 (Conv2D) (None, 55, 55, 8)    584         activation_8[0][0]               
__________________________________________________________________________________________________
nu_inception_1_3x3_3_4 (Conv2D) (None, 55, 55, 8)    584         activation_13[0][0]              
__________________________________________________________________________________________________
batch_normalization_2 (BatchNor (None, 55, 55, 16)   64          nu_inception_1_3x3_reduce[0][0]  
__________________________________________________________________________________________________
batch_normalization_5 (BatchNor (None, 55, 55, 8)    32          nu_inception_1_3x3_1[0][0]       
__________________________________________________________________________________________________
batch_normalization_9 (BatchNor (None, 55, 55, 8)    32          nu_inception_1_3x3_2_3[0][0]     
__________________________________________________________________________________________________
batch_normalization_14 (BatchNo (None, 55, 55, 8)    32          nu_inception_1_3x3_3_4[0][0]     
__________________________________________________________________________________________________
activation_2 (Activation)       (None, 55, 55, 16)   0           batch_normalization_2[0][0]      
__________________________________________________________________________________________________
activation_5 (Activation)       (None, 55, 55, 8)    0           batch_normalization_5[0][0]      
__________________________________________________________________________________________________
activation_9 (Activation)       (None, 55, 55, 8)    0           batch_normalization_9[0][0]      
__________________________________________________________________________________________________
activation_14 (Activation)      (None, 55, 55, 8)    0           batch_normalization_14[0][0]     
__________________________________________________________________________________________________
nu_inception_1_1x1 (Conv2D)     (None, 55, 55, 16)   1040        pool1[0][0]                      
__________________________________________________________________________________________________
nu_inception_1_3x3 (Conv2D)     (None, 55, 55, 24)   3480        activation_2[0][0]               
__________________________________________________________________________________________________
nu_inception_1_3x3_2 (Conv2D)   (None, 55, 55, 8)    584         activation_5[0][0]               
__________________________________________________________________________________________________
nu_inception_1_3x3_3_3 (Conv2D) (None, 55, 55, 8)    584         activation_9[0][0]               
__________________________________________________________________________________________________
nu_inception_1_3x3_4_4 (Conv2D) (None, 55, 55, 8)    584         activation_14[0][0]              
__________________________________________________________________________________________________
batch_normalization_1 (BatchNor (None, 55, 55, 16)   64          nu_inception_1_1x1[0][0]         
__________________________________________________________________________________________________
batch_normalization_3 (BatchNor (None, 55, 55, 24)   96          nu_inception_1_3x3[0][0]         
__________________________________________________________________________________________________
batch_normalization_6 (BatchNor (None, 55, 55, 8)    32          nu_inception_1_3x3_2[0][0]       
__________________________________________________________________________________________________
batch_normalization_10 (BatchNo (None, 55, 55, 8)    32          nu_inception_1_3x3_3_3[0][0]     
__________________________________________________________________________________________________
batch_normalization_15 (BatchNo (None, 55, 55, 8)    32          nu_inception_1_3x3_4_4[0][0]     
__________________________________________________________________________________________________
activation_1 (Activation)       (None, 55, 55, 16)   0           batch_normalization_1[0][0]      
__________________________________________________________________________________________________
activation_3 (Activation)       (None, 55, 55, 24)   0           batch_normalization_3[0][0]      
__________________________________________________________________________________________________
activation_6 (Activation)       (None, 55, 55, 8)    0           batch_normalization_6[0][0]      
__________________________________________________________________________________________________
activation_10 (Activation)      (None, 55, 55, 8)    0           batch_normalization_10[0][0]     
__________________________________________________________________________________________________
activation_15 (Activation)      (None, 55, 55, 8)    0           batch_normalization_15[0][0]     
__________________________________________________________________________________________________
concatenate (Concatenate)       (None, 55, 55, 64)   0           activation_1[0][0]               
                                                                 activation_3[0][0]               
                                                                 activation_6[0][0]               
                                                                 activation_10[0][0]              
                                                                 activation_15[0][0]              
__________________________________________________________________________________________________
conv_direct_1 (Conv2D)          (None, 55, 55, 64)   4160        concatenate[0][0]                
__________________________________________________________________________________________________
conv_bypass_1 (Conv2D)          (None, 55, 55, 64)   4160        pool1[0][0]                      
__________________________________________________________________________________________________
batch_normalization_16 (BatchNo (None, 55, 55, 64)   256         conv_direct_1[0][0]              
__________________________________________________________________________________________________
batch_normalization_17 (BatchNo (None, 55, 55, 64)   256         conv_bypass_1[0][0]              
__________________________________________________________________________________________________
activation_16 (Activation)      (None, 55, 55, 64)   0           batch_normalization_16[0][0]     
__________________________________________________________________________________________________
activation_17 (Activation)      (None, 55, 55, 64)   0           batch_normalization_17[0][0]     
__________________________________________________________________________________________________
residual1 (Add)                 (None, 55, 55, 64)   0           activation_16[0][0]              
                                                                 activation_17[0][0]              
__________________________________________________________________________________________________
activation_18 (Activation)      (None, 55, 55, 64)   0           residual1[0][0]                  
__________________________________________________________________________________________________
pool2 (MaxPooling2D)            (None, 27, 27, 64)   0           activation_18[0][0]              
__________________________________________________________________________________________________
nu_inception_2_3x3_0_4_reduce ( (None, 27, 27, 8)    520         pool2[0][0]                      
__________________________________________________________________________________________________
batch_normalization_28 (BatchNo (None, 27, 27, 8)    32          nu_inception_2_3x3_0_4_reduce[0][
__________________________________________________________________________________________________
activation_29 (Activation)      (None, 27, 27, 8)    0           batch_normalization_28[0][0]     
__________________________________________________________________________________________________
nu_inception_2_3x3_0_3_reduce ( (None, 27, 27, 8)    520         pool2[0][0]                      
__________________________________________________________________________________________________
nu_inception_2_3x3_1_4 (Conv2D) (None, 27, 27, 16)   1168        activation_29[0][0]              
__________________________________________________________________________________________________
batch_normalization_24 (BatchNo (None, 27, 27, 8)    32          nu_inception_2_3x3_0_3_reduce[0][
__________________________________________________________________________________________________
batch_normalization_29 (BatchNo (None, 27, 27, 16)   64          nu_inception_2_3x3_1_4[0][0]     
__________________________________________________________________________________________________
activation_25 (Activation)      (None, 27, 27, 8)    0           batch_normalization_24[0][0]     
__________________________________________________________________________________________________
activation_30 (Activation)      (None, 27, 27, 16)   0           batch_normalization_29[0][0]     
__________________________________________________________________________________________________
nu_inception_2_3x3_0_reduce (Co (None, 27, 27, 8)    520         pool2[0][0]                      
__________________________________________________________________________________________________
nu_inception_2_3x3_1_3 (Conv2D) (None, 27, 27, 16)   1168        activation_25[0][0]              
__________________________________________________________________________________________________
nu_inception_2_3x3_2_4 (Conv2D) (None, 27, 27, 16)   2320        activation_30[0][0]              
__________________________________________________________________________________________________
batch_normalization_21 (BatchNo (None, 27, 27, 8)    32          nu_inception_2_3x3_0_reduce[0][0]
__________________________________________________________________________________________________
batch_normalization_25 (BatchNo (None, 27, 27, 16)   64          nu_inception_2_3x3_1_3[0][0]     
__________________________________________________________________________________________________
batch_normalization_30 (BatchNo (None, 27, 27, 16)   64          nu_inception_2_3x3_2_4[0][0]     
__________________________________________________________________________________________________
activation_22 (Activation)      (None, 27, 27, 8)    0           batch_normalization_21[0][0]     
__________________________________________________________________________________________________
activation_26 (Activation)      (None, 27, 27, 16)   0           batch_normalization_25[0][0]     
__________________________________________________________________________________________________
activation_31 (Activation)      (None, 27, 27, 16)   0           batch_normalization_30[0][0]     
__________________________________________________________________________________________________
nu_inception_2_3x3_reduce (Conv (None, 27, 27, 32)   2080        pool2[0][0]                      
__________________________________________________________________________________________________
nu_inception_2_3x3_1 (Conv2D)   (None, 27, 27, 16)   1168        activation_22[0][0]              
__________________________________________________________________________________________________
nu_inception_2_3x3_2_3 (Conv2D) (None, 27, 27, 16)   2320        activation_26[0][0]              
__________________________________________________________________________________________________
nu_inception_2_3x3_3_4 (Conv2D) (None, 27, 27, 16)   2320        activation_31[0][0]              
__________________________________________________________________________________________________
batch_normalization_19 (BatchNo (None, 27, 27, 32)   128         nu_inception_2_3x3_reduce[0][0]  
__________________________________________________________________________________________________
batch_normalization_22 (BatchNo (None, 27, 27, 16)   64          nu_inception_2_3x3_1[0][0]       
__________________________________________________________________________________________________
batch_normalization_26 (BatchNo (None, 27, 27, 16)   64          nu_inception_2_3x3_2_3[0][0]     
__________________________________________________________________________________________________
batch_normalization_31 (BatchNo (None, 27, 27, 16)   64          nu_inception_2_3x3_3_4[0][0]     
__________________________________________________________________________________________________
activation_20 (Activation)      (None, 27, 27, 32)   0           batch_normalization_19[0][0]     
__________________________________________________________________________________________________
activation_23 (Activation)      (None, 27, 27, 16)   0           batch_normalization_22[0][0]     
__________________________________________________________________________________________________
activation_27 (Activation)      (None, 27, 27, 16)   0           batch_normalization_26[0][0]     
__________________________________________________________________________________________________
activation_32 (Activation)      (None, 27, 27, 16)   0           batch_normalization_31[0][0]     
__________________________________________________________________________________________________
nu_inception_2_1x1 (Conv2D)     (None, 27, 27, 32)   2080        pool2[0][0]                      
__________________________________________________________________________________________________
nu_inception_2_3x3 (Conv2D)     (None, 27, 27, 48)   13872       activation_20[0][0]              
__________________________________________________________________________________________________
nu_inception_2_3x3_2 (Conv2D)   (None, 27, 27, 16)   2320        activation_23[0][0]              
__________________________________________________________________________________________________
nu_inception_2_3x3_3_3 (Conv2D) (None, 27, 27, 16)   2320        activation_27[0][0]              
__________________________________________________________________________________________________
nu_inception_2_3x3_4_4 (Conv2D) (None, 27, 27, 16)   2320        activation_32[0][0]              
__________________________________________________________________________________________________
batch_normalization_18 (BatchNo (None, 27, 27, 32)   128         nu_inception_2_1x1[0][0]         
__________________________________________________________________________________________________
batch_normalization_20 (BatchNo (None, 27, 27, 48)   192         nu_inception_2_3x3[0][0]         
__________________________________________________________________________________________________
batch_normalization_23 (BatchNo (None, 27, 27, 16)   64          nu_inception_2_3x3_2[0][0]       
__________________________________________________________________________________________________
batch_normalization_27 (BatchNo (None, 27, 27, 16)   64          nu_inception_2_3x3_3_3[0][0]     
__________________________________________________________________________________________________
batch_normalization_32 (BatchNo (None, 27, 27, 16)   64          nu_inception_2_3x3_4_4[0][0]     
__________________________________________________________________________________________________
activation_19 (Activation)      (None, 27, 27, 32)   0           batch_normalization_18[0][0]     
__________________________________________________________________________________________________
activation_21 (Activation)      (None, 27, 27, 48)   0           batch_normalization_20[0][0]     
__________________________________________________________________________________________________
activation_24 (Activation)      (None, 27, 27, 16)   0           batch_normalization_23[0][0]     
__________________________________________________________________________________________________
activation_28 (Activation)      (None, 27, 27, 16)   0           batch_normalization_27[0][0]     
__________________________________________________________________________________________________
activation_33 (Activation)      (None, 27, 27, 16)   0           batch_normalization_32[0][0]     
__________________________________________________________________________________________________
concatenate_1 (Concatenate)     (None, 27, 27, 128)  0           activation_19[0][0]              
                                                                 activation_21[0][0]              
                                                                 activation_24[0][0]              
                                                                 activation_28[0][0]              
                                                                 activation_33[0][0]              
__________________________________________________________________________________________________
conv_direct_2 (Conv2D)          (None, 27, 27, 128)  16512       concatenate_1[0][0]              
__________________________________________________________________________________________________
conv_bypass_2 (Conv2D)          (None, 27, 27, 128)  8320        pool2[0][0]                      
__________________________________________________________________________________________________
batch_normalization_33 (BatchNo (None, 27, 27, 128)  512         conv_direct_2[0][0]              
__________________________________________________________________________________________________
batch_normalization_34 (BatchNo (None, 27, 27, 128)  512         conv_bypass_2[0][0]              
__________________________________________________________________________________________________
activation_34 (Activation)      (None, 27, 27, 128)  0           batch_normalization_33[0][0]     
__________________________________________________________________________________________________
activation_35 (Activation)      (None, 27, 27, 128)  0           batch_normalization_34[0][0]     
__________________________________________________________________________________________________
residual2 (Add)                 (None, 27, 27, 128)  0           activation_34[0][0]              
                                                                 activation_35[0][0]              
__________________________________________________________________________________________________
activation_36 (Activation)      (None, 27, 27, 128)  0           residual2[0][0]                  
__________________________________________________________________________________________________
pool3 (MaxPooling2D)            (None, 13, 13, 128)  0           activation_36[0][0]              
__________________________________________________________________________________________________
nu_inception_3_3x3_0_4_reduce ( (None, 13, 13, 16)   2064        pool3[0][0]                      
__________________________________________________________________________________________________
batch_normalization_45 (BatchNo (None, 13, 13, 16)   64          nu_inception_3_3x3_0_4_reduce[0][
__________________________________________________________________________________________________
activation_47 (Activation)      (None, 13, 13, 16)   0           batch_normalization_45[0][0]     
__________________________________________________________________________________________________
nu_inception_3_3x3_0_3_reduce ( (None, 13, 13, 16)   2064        pool3[0][0]                      
__________________________________________________________________________________________________
nu_inception_3_3x3_1_4 (Conv2D) (None, 13, 13, 32)   4640        activation_47[0][0]              
__________________________________________________________________________________________________
batch_normalization_41 (BatchNo (None, 13, 13, 16)   64          nu_inception_3_3x3_0_3_reduce[0][
__________________________________________________________________________________________________
batch_normalization_46 (BatchNo (None, 13, 13, 32)   128         nu_inception_3_3x3_1_4[0][0]     
__________________________________________________________________________________________________
activation_43 (Activation)      (None, 13, 13, 16)   0           batch_normalization_41[0][0]     
__________________________________________________________________________________________________
activation_48 (Activation)      (None, 13, 13, 32)   0           batch_normalization_46[0][0]     
__________________________________________________________________________________________________
nu_inception_3_3x3_0_reduce (Co (None, 13, 13, 16)   2064        pool3[0][0]                      
__________________________________________________________________________________________________
nu_inception_3_3x3_1_3 (Conv2D) (None, 13, 13, 32)   4640        activation_43[0][0]              
__________________________________________________________________________________________________
nu_inception_3_3x3_2_4 (Conv2D) (None, 13, 13, 32)   9248        activation_48[0][0]              
__________________________________________________________________________________________________
batch_normalization_38 (BatchNo (None, 13, 13, 16)   64          nu_inception_3_3x3_0_reduce[0][0]
__________________________________________________________________________________________________
batch_normalization_42 (BatchNo (None, 13, 13, 32)   128         nu_inception_3_3x3_1_3[0][0]     
__________________________________________________________________________________________________
batch_normalization_47 (BatchNo (None, 13, 13, 32)   128         nu_inception_3_3x3_2_4[0][0]     
__________________________________________________________________________________________________
activation_40 (Activation)      (None, 13, 13, 16)   0           batch_normalization_38[0][0]     
__________________________________________________________________________________________________
activation_44 (Activation)      (None, 13, 13, 32)   0           batch_normalization_42[0][0]     
__________________________________________________________________________________________________
activation_49 (Activation)      (None, 13, 13, 32)   0           batch_normalization_47[0][0]     
__________________________________________________________________________________________________
nu_inception_3_3x3_reduce (Conv (None, 13, 13, 64)   8256        pool3[0][0]                      
__________________________________________________________________________________________________
nu_inception_3_3x3_1 (Conv2D)   (None, 13, 13, 32)   4640        activation_40[0][0]              
__________________________________________________________________________________________________
nu_inception_3_3x3_2_3 (Conv2D) (None, 13, 13, 32)   9248        activation_44[0][0]              
__________________________________________________________________________________________________
nu_inception_3_3x3_3_4 (Conv2D) (None, 13, 13, 32)   9248        activation_49[0][0]              
__________________________________________________________________________________________________
batch_normalization_36 (BatchNo (None, 13, 13, 64)   256         nu_inception_3_3x3_reduce[0][0]  
__________________________________________________________________________________________________
batch_normalization_39 (BatchNo (None, 13, 13, 32)   128         nu_inception_3_3x3_1[0][0]       
__________________________________________________________________________________________________
batch_normalization_43 (BatchNo (None, 13, 13, 32)   128         nu_inception_3_3x3_2_3[0][0]     
__________________________________________________________________________________________________
batch_normalization_48 (BatchNo (None, 13, 13, 32)   128         nu_inception_3_3x3_3_4[0][0]     
__________________________________________________________________________________________________
activation_38 (Activation)      (None, 13, 13, 64)   0           batch_normalization_36[0][0]     
__________________________________________________________________________________________________
activation_41 (Activation)      (None, 13, 13, 32)   0           batch_normalization_39[0][0]     
__________________________________________________________________________________________________
activation_45 (Activation)      (None, 13, 13, 32)   0           batch_normalization_43[0][0]     
__________________________________________________________________________________________________
activation_50 (Activation)      (None, 13, 13, 32)   0           batch_normalization_48[0][0]     
__________________________________________________________________________________________________
nu_inception_3_1x1 (Conv2D)     (None, 13, 13, 64)   8256        pool3[0][0]                      
__________________________________________________________________________________________________
nu_inception_3_3x3 (Conv2D)     (None, 13, 13, 96)   55392       activation_38[0][0]              
__________________________________________________________________________________________________
nu_inception_3_3x3_2 (Conv2D)   (None, 13, 13, 32)   9248        activation_41[0][0]              
__________________________________________________________________________________________________
nu_inception_3_3x3_3_3 (Conv2D) (None, 13, 13, 32)   9248        activation_45[0][0]              
__________________________________________________________________________________________________
nu_inception_3_3x3_4_4 (Conv2D) (None, 13, 13, 32)   9248        activation_50[0][0]              
__________________________________________________________________________________________________
batch_normalization_35 (BatchNo (None, 13, 13, 64)   256         nu_inception_3_1x1[0][0]         
__________________________________________________________________________________________________
batch_normalization_37 (BatchNo (None, 13, 13, 96)   384         nu_inception_3_3x3[0][0]         
__________________________________________________________________________________________________
batch_normalization_40 (BatchNo (None, 13, 13, 32)   128         nu_inception_3_3x3_2[0][0]       
__________________________________________________________________________________________________
batch_normalization_44 (BatchNo (None, 13, 13, 32)   128         nu_inception_3_3x3_3_3[0][0]     
__________________________________________________________________________________________________
batch_normalization_49 (BatchNo (None, 13, 13, 32)   128         nu_inception_3_3x3_4_4[0][0]     
__________________________________________________________________________________________________
activation_37 (Activation)      (None, 13, 13, 64)   0           batch_normalization_35[0][0]     
__________________________________________________________________________________________________
activation_39 (Activation)      (None, 13, 13, 96)   0           batch_normalization_37[0][0]     
__________________________________________________________________________________________________
activation_42 (Activation)      (None, 13, 13, 32)   0           batch_normalization_40[0][0]     
__________________________________________________________________________________________________
activation_46 (Activation)      (None, 13, 13, 32)   0           batch_normalization_44[0][0]     
__________________________________________________________________________________________________
activation_51 (Activation)      (None, 13, 13, 32)   0           batch_normalization_49[0][0]     
__________________________________________________________________________________________________
concatenate_2 (Concatenate)     (None, 13, 13, 256)  0           activation_37[0][0]              
                                                                 activation_39[0][0]              
                                                                 activation_42[0][0]              
                                                                 activation_46[0][0]              
                                                                 activation_51[0][0]              
__________________________________________________________________________________________________
conv_direct_3 (Conv2D)          (None, 13, 13, 256)  65792       concatenate_2[0][0]              
__________________________________________________________________________________________________
conv_bypass_3 (Conv2D)          (None, 13, 13, 256)  33024       pool3[0][0]                      
__________________________________________________________________________________________________
batch_normalization_50 (BatchNo (None, 13, 13, 256)  1024        conv_direct_3[0][0]              
__________________________________________________________________________________________________
batch_normalization_51 (BatchNo (None, 13, 13, 256)  1024        conv_bypass_3[0][0]              
__________________________________________________________________________________________________
activation_52 (Activation)      (None, 13, 13, 256)  0           batch_normalization_50[0][0]     
__________________________________________________________________________________________________
activation_53 (Activation)      (None, 13, 13, 256)  0           batch_normalization_51[0][0]     
__________________________________________________________________________________________________
residual3 (Add)                 (None, 13, 13, 256)  0           activation_52[0][0]              
                                                                 activation_53[0][0]              
__________________________________________________________________________________________________
activation_54 (Activation)      (None, 13, 13, 256)  0           residual3[0][0]                  
__________________________________________________________________________________________________
pool4 (MaxPooling2D)            (None, 6, 6, 256)    0           activation_54[0][0]              
__________________________________________________________________________________________________
nu_inception_4_3x3_0_4_reduce ( (None, 6, 6, 32)     8224        pool4[0][0]                      
__________________________________________________________________________________________________
batch_normalization_62 (BatchNo (None, 6, 6, 32)     128         nu_inception_4_3x3_0_4_reduce[0][
__________________________________________________________________________________________________
activation_65 (Activation)      (None, 6, 6, 32)     0           batch_normalization_62[0][0]     
__________________________________________________________________________________________________
nu_inception_4_3x3_0_3_reduce ( (None, 6, 6, 32)     8224        pool4[0][0]                      
__________________________________________________________________________________________________
nu_inception_4_3x3_1_4 (Conv2D) (None, 6, 6, 64)     18496       activation_65[0][0]              
__________________________________________________________________________________________________
batch_normalization_58 (BatchNo (None, 6, 6, 32)     128         nu_inception_4_3x3_0_3_reduce[0][
__________________________________________________________________________________________________
batch_normalization_63 (BatchNo (None, 6, 6, 64)     256         nu_inception_4_3x3_1_4[0][0]     
__________________________________________________________________________________________________
activation_61 (Activation)      (None, 6, 6, 32)     0           batch_normalization_58[0][0]     
__________________________________________________________________________________________________
activation_66 (Activation)      (None, 6, 6, 64)     0           batch_normalization_63[0][0]     
__________________________________________________________________________________________________
nu_inception_4_3x3_0_reduce (Co (None, 6, 6, 32)     8224        pool4[0][0]                      
__________________________________________________________________________________________________
nu_inception_4_3x3_1_3 (Conv2D) (None, 6, 6, 64)     18496       activation_61[0][0]              
__________________________________________________________________________________________________
nu_inception_4_3x3_2_4 (Conv2D) (None, 6, 6, 64)     36928       activation_66[0][0]              
__________________________________________________________________________________________________
batch_normalization_55 (BatchNo (None, 6, 6, 32)     128         nu_inception_4_3x3_0_reduce[0][0]
__________________________________________________________________________________________________
batch_normalization_59 (BatchNo (None, 6, 6, 64)     256         nu_inception_4_3x3_1_3[0][0]     
__________________________________________________________________________________________________
batch_normalization_64 (BatchNo (None, 6, 6, 64)     256         nu_inception_4_3x3_2_4[0][0]     
__________________________________________________________________________________________________
activation_58 (Activation)      (None, 6, 6, 32)     0           batch_normalization_55[0][0]     
__________________________________________________________________________________________________
activation_62 (Activation)      (None, 6, 6, 64)     0           batch_normalization_59[0][0]     
__________________________________________________________________________________________________
activation_67 (Activation)      (None, 6, 6, 64)     0           batch_normalization_64[0][0]     
__________________________________________________________________________________________________
nu_inception_4_3x3_reduce (Conv (None, 6, 6, 128)    32896       pool4[0][0]                      
__________________________________________________________________________________________________
nu_inception_4_3x3_1 (Conv2D)   (None, 6, 6, 64)     18496       activation_58[0][0]              
__________________________________________________________________________________________________
nu_inception_4_3x3_2_3 (Conv2D) (None, 6, 6, 64)     36928       activation_62[0][0]              
__________________________________________________________________________________________________
nu_inception_4_3x3_3_4 (Conv2D) (None, 6, 6, 64)     36928       activation_67[0][0]              
__________________________________________________________________________________________________
batch_normalization_53 (BatchNo (None, 6, 6, 128)    512         nu_inception_4_3x3_reduce[0][0]  
__________________________________________________________________________________________________
batch_normalization_56 (BatchNo (None, 6, 6, 64)     256         nu_inception_4_3x3_1[0][0]       
__________________________________________________________________________________________________
batch_normalization_60 (BatchNo (None, 6, 6, 64)     256         nu_inception_4_3x3_2_3[0][0]     
__________________________________________________________________________________________________
batch_normalization_65 (BatchNo (None, 6, 6, 64)     256         nu_inception_4_3x3_3_4[0][0]     
__________________________________________________________________________________________________
activation_56 (Activation)      (None, 6, 6, 128)    0           batch_normalization_53[0][0]     
__________________________________________________________________________________________________
activation_59 (Activation)      (None, 6, 6, 64)     0           batch_normalization_56[0][0]     
__________________________________________________________________________________________________
activation_63 (Activation)      (None, 6, 6, 64)     0           batch_normalization_60[0][0]     
__________________________________________________________________________________________________
activation_68 (Activation)      (None, 6, 6, 64)     0           batch_normalization_65[0][0]     
__________________________________________________________________________________________________
nu_inception_4_1x1 (Conv2D)     (None, 6, 6, 128)    32896       pool4[0][0]                      
__________________________________________________________________________________________________
nu_inception_4_3x3 (Conv2D)     (None, 6, 6, 192)    221376      activation_56[0][0]              
__________________________________________________________________________________________________
nu_inception_4_3x3_2 (Conv2D)   (None, 6, 6, 64)     36928       activation_59[0][0]              
__________________________________________________________________________________________________
nu_inception_4_3x3_3_3 (Conv2D) (None, 6, 6, 64)     36928       activation_63[0][0]              
__________________________________________________________________________________________________
nu_inception_4_3x3_4_4 (Conv2D) (None, 6, 6, 64)     36928       activation_68[0][0]              
__________________________________________________________________________________________________
batch_normalization_52 (BatchNo (None, 6, 6, 128)    512         nu_inception_4_1x1[0][0]         
__________________________________________________________________________________________________
batch_normalization_54 (BatchNo (None, 6, 6, 192)    768         nu_inception_4_3x3[0][0]         
__________________________________________________________________________________________________
batch_normalization_57 (BatchNo (None, 6, 6, 64)     256         nu_inception_4_3x3_2[0][0]       
__________________________________________________________________________________________________
batch_normalization_61 (BatchNo (None, 6, 6, 64)     256         nu_inception_4_3x3_3_3[0][0]     
__________________________________________________________________________________________________
batch_normalization_66 (BatchNo (None, 6, 6, 64)     256         nu_inception_4_3x3_4_4[0][0]     
__________________________________________________________________________________________________
activation_55 (Activation)      (None, 6, 6, 128)    0           batch_normalization_52[0][0]     
__________________________________________________________________________________________________
activation_57 (Activation)      (None, 6, 6, 192)    0           batch_normalization_54[0][0]     
__________________________________________________________________________________________________
activation_60 (Activation)      (None, 6, 6, 64)     0           batch_normalization_57[0][0]     
__________________________________________________________________________________________________
activation_64 (Activation)      (None, 6, 6, 64)     0           batch_normalization_61[0][0]     
__________________________________________________________________________________________________
activation_69 (Activation)      (None, 6, 6, 64)     0           batch_normalization_66[0][0]     
__________________________________________________________________________________________________
concatenate_3 (Concatenate)     (None, 6, 6, 512)    0           activation_55[0][0]              
                                                                 activation_57[0][0]              
                                                                 activation_60[0][0]              
                                                                 activation_64[0][0]              
                                                                 activation_69[0][0]              
__________________________________________________________________________________________________
conv_direct_4 (Conv2D)          (None, 6, 6, 512)    262656      concatenate_3[0][0]              
__________________________________________________________________________________________________
conv_bypass_4 (Conv2D)          (None, 6, 6, 512)    131584      pool4[0][0]                      
__________________________________________________________________________________________________
batch_normalization_67 (BatchNo (None, 6, 6, 512)    2048        conv_direct_4[0][0]              
__________________________________________________________________________________________________
batch_normalization_68 (BatchNo (None, 6, 6, 512)    2048        conv_bypass_4[0][0]              
__________________________________________________________________________________________________
activation_70 (Activation)      (None, 6, 6, 512)    0           batch_normalization_67[0][0]     
__________________________________________________________________________________________________
activation_71 (Activation)      (None, 6, 6, 512)    0           batch_normalization_68[0][0]     
__________________________________________________________________________________________________
residual4 (Add)                 (None, 6, 6, 512)    0           activation_70[0][0]              
                                                                 activation_71[0][0]              
__________________________________________________________________________________________________
activation_72 (Activation)      (None, 6, 6, 512)    0           residual4[0][0]                  
__________________________________________________________________________________________________
avg_pool (GlobalAveragePooling2 (None, 512)          0           activation_72[0][0]              
__________________________________________________________________________________________________
dense (Dense)                   (None, 50)           25650       avg_pool[0][0]                   
==================================================================================================
Total params: 1,357,206
Trainable params: 1,349,038
Non-trainable params: 8,168
__________________________________________________________________________________________________
Epoch 1/100
199/199 - 97s - loss: 5.3907 - accuracy: 0.1812 - val_loss: 4.6953 - val_accuracy: 0.2031
…
